Conditional_GAN/checkpoints/Discriminator.pth (torch, 586863 bytes, 13 tensors)

disc.0.weight f4 [64, 11, 4, 4]
000000 30 8f 05 bd d2 56 f0 bc 58 e5 f1 bc e1 d3 f9 3b
       -0.032607257 -0.029338274 -0.029528305 0.007624135
000010 b4 d9 1a bd bf ac ed 3d 50 2c 52 3e 16 05 1e 3d
       -0.037805274 0.11605214 0.20524716 0.03857907
000020 43 6b b8 bc 9e 11 3c 3e 40 e7 77 bc a3 a7 ce bd
       -0.022512084 0.18366095 -0.015130818 -0.10090568
000030 da 73 ce 3c 03 8c 3d 3c f1 81 c6 bd f9 72 ab bd
       0.025201727 0.011569026 -0.09692753 -0.08371539
000040 d7 cb 3e 3c 31 cc fa 3c 50 4a 7e 3b 2f 29 e9 3c
       0.011645279 0.030614944 0.0038801618 0.02846202
000050 4f 64 2d bc 84 7d 83 bc 19 63 17 3d 12 79 c7 3c
       -0.010582997 -0.016051061 0.03695974 0.024349723
000060 d5 20 2a 3d 10 dc a9 3c bd c3 99 bb 61 41 3d 3b
       0.041535217 0.020734817 -0.0046925233 0.002887808
000070 4c d9 df bb c4 70 13 bc 15 d3 13 3c a2 ac aa bc
       -0.0068313237 -0.008999053 0.009022494 -0.02083427
000080 34 b1 9c 3c 80 f6 95 3c 6f 30 3b bc 3a 52 5f bc
       0.019127466 0.018306017 -0.011425122 -0.013630444
000090 ac bc 07 bc be 58 66 3d 5a 8e 8f 3c 9f 6a c0 3c
       -0.008284729 0.056236975 0.017523933 0.02348834
0000a0 bb 74 c4 bc ab 9b b0 bc c2 2c 30 3c e3 4a ae 3c
       -0.023981443 -0.021558603 0.010752859 0.021275943
0000b0 02 cd 22 3c 84 e9 6c 3c 47 19 b8 bc 19 b1 1a ba
       0.009936573 0.014459971 -0.02247299 -0.00059010234
0000c0 c4 68 93 bc 47 68 0a 3c 93 8d fd 3c ac 25 df 3c
       -0.017994292 0.008447713 0.030951297 0.027239643
0000d0 1e c4 9b 3c 01 df 72 3b 66 53 69 3b 1c 8b c7 3b
       0.019014414 0.003705919 0.0035602688 0.006089581
0000e0 90 ba d4 3c 55 16 8a 3b 43 8c 8b 3c 0d 92 dc 3b
       0.025967866 0.004214088 0.017034655 0.006731278
0000f0 5e be 22 3d 1c 01 e0 3c 44 b1 20 3b d0 cd 87 3c
       0.03973233 0.027344279 0.002451972 0.016577631
000100 3a 15 5b bb 32 d3 8c 3c 6e ac fa bb ba e6 93 3b
       -0.00334294 0.01719055 -0.0076499498 0.0045135887
000110 c2 dc 1a 3d 51 70 09 3c 42 bd 0d 3d 1e 03 d7 bb
       0.037808187 0.008388595 0.03460432 -0.006561651
000120 25 89 3c bc ed 04 a6 3c dc d7 85 3d 1f 5d bc 3b
       -0.011507307 0.02026602 0.065353125 0.0057484056
000130 ba 30 5c 3c e9 94 40 bd 71 3a b5 3c 1d 2f 37 3c
       0.013439352 -0.04701701 0.022122594 0.011180666
000140 fd 51 d8 3b 08 9c 3c 3b 34 9b b7 3c 19 46 89 3c
       0.0066015706 0.0028779525 0.022412874 0.016757058
000150 c2 d4 12 bc c2 8c 8e 3c 02 5c 1f 3d 1d 76 44 3c
       -0.008961858 0.017401103 0.038906105 0.011991051
000160 da 8d 25 3c 95 a2 f6 bb 54 2b 09 3c 02 87 ac 3c
       0.010104621 -0.0075267055 0.008372147 0.02106047
000170 d9 9c 5b 3c f3 57 8d 3c 38 e8 26 3c b3 97 00 3d
       0.013404095 0.017253852 0.010187201 0.03139467
000180 12 2e e6 3c dc fb 5f bb 6f 09 f0 3c b8 1f ad 3a
       0.02809814 -0.003417722 0.029301373 0.0013208305
000190 63 7d ed 3a 92 5e 98 bc 20 89 13 3d ae 93 78 ba
       0.0018119033 -0.018599782 0.036019444 -0.0009482455
0001a0 af f7 5d 3c 0a d4 d7 3c 13 f7 a3 3c a9 ac 94 3b
       0.013547822 0.026346225 0.020015275 0.0045371843
0001b0 bf 80 22 bb 99 62 0e bb 86 9d 2d 3c ef 10 67 3d
       -0.0024795977 -0.002172625 0.010596639 0.056412634
0001c0 20 db d8 3b 0f 2c 30 3d 61 1a 70 3c e0 66 16 bc
       0.0066179186 0.043010768 0.014654727 -0.009179801
0001d0 f3 8e 8c 3c c8 06 b2 bb 24 23 bf 3b 74 e1 c5 bb
       0.017158007 -0.0054329373 0.0058330465 -0.006038839
0001e0 a8 56 2b 3d 64 3f ad bc a8 d7 1a 3c 2e 5f 85 bb
       0.04183069 -0.021148391 0.0094508305 -0.004070184
0001f0 c0 b5 21 3d 8c 16 b1 3b 38 d7 9a 3c a7 7a bc 3c
       0.03947997 0.005404299 0.018901452 0.023007704
000200 42 61 4e b8 f1 37 a4 bc c2 f2 bd 3c 3d 3a ad 3c
       -4.9204806e-05 -0.020046206 0.023187045 0.021145934
000210 52 68 b4 3c 1f ec 79 3b 66 ee c1 bb 91 cf b2 bc
       0.0220224 0.0038135124 -0.005918312 -0.021827491
000220 f2 b1 c2 3c fb 0e 2b bc 1d 01 f3 3c f9 7f b7 3c
       0.023766492 -0.010440583 0.029663617 0.02239989
000230 aa 47 0b b9 29 76 ea 3c 23 57 dd 3b 72 7a 09 3d
       -0.0001328277 0.028620796 0.0067547723 0.03356404
000240 c2 67 4b 3d 52 b1 84 3c b3 0f 92 3c 88 a6 2b 3d
       0.049659498 0.016197834 0.017829752 0.041906863
000250 e1 c7 33 bc e3 f2 77 3c b0 95 c5 bc da b1 91 3c
       -0.010972948 0.015133592 -0.024119228 0.017785002
000260 f4 21 35 bc 97 16 78 3c c8 80 f6 3b 43 f5 0d bd
       -0.011055458 0.015142105 0.007522676 -0.034657728
000270 da 48 16 3d a7 83 83 3c 58 f1 60 3c 2c ff 8f 3b
       0.03669057 0.016053988 0.013729416 0.0043944325
000280 62 b7 05 3c 18 59 36 ba 24 a1 28 3d 5e 67 e2 3c
       0.008161398 -0.0006956025 0.0411693 0.02763718
000290 75 76 82 bb 4b 11 04 3c b8 3c ce ba d0 81 49 bc
       -0.0039814063 0.008060764 -0.0015734648 -0.012299016
0002a0 f3 c5 70 bc fe 03 a7 3b 36 3f 28 3d 91 82 63 3d
       -0.014695632 0.0050969115 0.041075908 0.05554444
0002b0 e0 b0 4f 3d 31 fe 25 bc 3e 85 0d 3b 67 b3 c1 bc
       0.05070579 -0.010131405 0.002159431 -0.023645116
0002c0 52 08 ba 3c 8c cd 8a 3d 56 58 6e 3d 92 45 30 3d
       0.022709046 0.06777486 0.058189712 0.043035097
0002d0 b7 58 d2 3d dc 03 9e 3d 50 19 06 bb e5 dd 27 3c
       0.10270827 0.0771558 -0.0020461865 0.010245775
0002e0 85 3b c7 bd b2 ff 14 be a9 26 0d bd ea ee 92 3d
       -0.09728149 -0.14550665 -0.034460697 0.071744755
0002f0 4a 33 e6 bd 7d cc e7 bd aa ae dc 3d bc 26 1f 3e
       -0.11240251 -0.113183 0.10775502 0.1554212
000300 a1 a3 1f bc 83 30 f5 bc d1 71 f8 3c b9 41 e2 bc
       -0.009743602 -0.029930359 0.03032771 -0.02761923
000310 56 f7 fd bb da c7 8b bc ea c9 d9 bc 84 7b 7b bc
       -0.007750432 -0.01706307 -0.026585538 -0.015349273
000320 1a ec ea b9 9a 83 c1 bc 93 ed de bc d3 88 1c bc
       -0.00044807867 -0.023622323 -0.027212894 -0.009554106
000330 32 67 4a bc d4 0b b6 bc 9d b3 d1 3b 62 42 32 bd
       -0.012353705 -0.022222437 0.0063995854 -0.04352034
000340 8a 4e de bc e2 e9 8e 3c 33 ac a6 bc 6d c6 86 3c
       -0.02713706 0.017445508 -0.020345783 0.016452039
000350 ec 89 ad 3c 7c fa cc bc 43 ac c1 3b ff 29 94 bc
       0.02118393 -0.025021784 0.005910428 -0.018086432
000360 76 f8 00 bd 13 d6 20 bd 3c fe a4 bc 3c ea b3 bc
       -0.03148695 -0.039266657 -0.02014076 -0.021962278
000370 45 c2 01 3c f6 c5 08 bd 66 85 5e 3b 9d dc b0 bc
       0.007919853 -0.033391915 0.0033954023 -0.021589572
000380 2e 43 9c bc 04 d6 c9 ba e8 12 51 bd 93 c9 fa bc
       -0.019075003 -0.0015398865 -0.05104342 -0.030613696
000390 e0 ce fe bc 0b 20 7b bd b5 2e 63 bd 53 6f 4f bd
       -0.031104505 -0.061309855 -0.055464465 -0.050643276
0003a0 3b 24 ce bc 45 bb dd bb d5 41 11 bc e2 58 e6 bc
       -0.02516376 -0.006766709 -0.008865793 -0.028118555
0003b0 7c ac 28 bd a3 82 4f bb 9d 7a d0 bc 35 7f 41 bc
       -0.04118012 -0.003166356 -0.025449092 -0.011810114
0003c0 46 4a 56 bd 80 4d e5 bc b1 7d 34 bc 8c a0 08 bd
       -0.052316926 -0.027991056 -0.011016295 -0.033356234
0003d0 3a 4f 91 bd 38 bb 37 bd 4f 02 1a bc 03 21 08 3c
       -0.070951894 -0.04485628 -0.0093999645 0.008308652
0003e0 27 8b 20 bd 0f 75 14 bd 84 47 51 3b ac 57 04 bd
       -0.039195206 -0.03624445 0.0031933496 -0.032310173
0003f0 7d b4 46 bd e3 44 6e bc 67 54 24 3b b3 83 8a bc
       -0.04851197 -0.014542791 0.0025074722 -0.016908502

disc.0.bias f4 [64]
000000 74 df ac 3d 69 68 e9 3c e6 2c e7 bc 6d 47 16 3c
       0.08441058 0.02849217 -0.028219651 0.009172303
000010 2d 16 24 3e ef ea 7e 3d 8f 99 e9 3c 92 3c 7d 3b
       0.16024084 0.06223577 0.028515605 0.003864084
000020 b8 6b 89 3d a1 3e d1 3c 79 05 92 3c ea aa f8 bc
       0.06709999 0.02554256 0.017824875 -0.030354936
000030 3b 5e ac bd f1 4e 2c bd 9c 06 7d bd 01 76 6a bd
       -0.084164105 -0.042067472 -0.06177388 -0.057241444
000040 ff 3e fd 3a a7 67 a6 3c 80 73 14 3b 3b 3e ce bd
       0.0019321142 0.020313097 0.0022651851 -0.10070463
000050 1d 22 3d 3d 5b 81 c3 bd 9f 2e 26 3d 9b 4e ab bc
       0.04617511 -0.09546157 0.040571805 -0.020911505
000060 24 6f 22 3d 3e 36 72 3d a5 d4 3e 3c a3 e2 28 bd
       0.039656773 0.05913376 0.011647378 -0.041231763
000070 ba 22 2b bd 75 c5 21 bd 28 56 90 3b cd 6e 4b bd
       -0.041781165 -0.03949495 0.004404802 -0.049666215
000080 0a 52 73 3d 04 a5 35 bc 25 8f ce 3c 21 2e b5 bd
       0.05940441 -0.011086706 0.025214741 -0.08846689
000090 17 76 34 bd 6b a1 5c 3a f5 8f 89 bd 04 24 b8 bd
       -0.04405793 0.0008416387 -0.06716911 -0.089912444
0000a0 e0 82 1c bd ab 07 52 bc 58 6e bc bc f3 23 45 bd
       -0.03821075 -0.012819211 -0.023001835 -0.048129987
0000b0 b8 31 8f bd 6f 72 2e 3c 73 6d 8a 3d 7c bd 26 bd
       -0.06991905 0.0106474 0.06759157 -0.04070805
0000c0 fc 23 9d bc 27 a8 1e 3d 0a 8a dc bc 32 a8 be 3c
       -0.019182198 0.03873458 -0.02692129 0.023273561
0000d0 7c 1b 89 3c c2 69 4c 3d 15 b1 39 3d f8 24 80 3d
       0.016736738 0.049905546 0.045334894 0.06257051
0000e0 26 8c 29 3d ab 71 eb 3b f1 40 4e 3d 81 87 22 bc
       0.04139342 0.007185181 0.0503549 -0.009920002
0000f0 a4 f0 11 3d 65 6f 74 bc 79 d7 20 3d 0b 0e 94 3d
       0.035629883 -0.014919137 0.03926799 0.07229241

disc.1.weight f4 [64]
000000 97 ba 7c 3d 99 ed a7 bd 14 f9 ab bd f3 31 5a 3c
       0.061701383 -0.08199615 -0.08397117 0.013317573
000010 43 0a c2 3d 07 28 6a bd d9 51 5b 3d eb c6 a1 bd
       0.094746135 -0.05716708 0.053544853 -0.07899269
000020 5b 56 d2 3d a9 2a be 3d 55 41 6e bd fe a2 83 3d
       0.10270377 0.092854805 -0.058167774 0.06427573
000030 4f 97 a2 3d 21 49 8a 3d 95 ce e6 bb 11 33 48 ba
       0.07939016 0.067522295 -0.0070436695 -0.0007637004
000040 b9 b1 ea bc 65 38 14 3d b6 63 91 3d e5 fc e0 bd
       -0.028649198 0.036186595 0.070990965 -0.10985736
000050 62 9e bb 3d 23 07 44 bc 2f 4e 0f be 39 0f 37 bd
       0.091610685 -0.011964592 -0.13994668 -0.04469225
000060 20 0c 81 3d 06 90 96 3d bd 8d 0e 3d 1d c8 77 bd
       0.06301141 0.07351689 0.03480314 -0.060493577
000070 eb 22 8a bd ff 65 c6 3b ad 1b 5f bd 39 4d 8a bd
       -0.06744941 0.0060546394 -0.054469753 -0.0675301
000080 1d c0 4f bd 46 35 cb bd 06 4c 93 bd 56 70 b2 3d
       -0.050720323 -0.099222705 -0.07192235 0.08712833
000090 e9 89 44 bd ad 27 cb 3d 76 3f a2 bd 77 a4 ae bd
       -0.047983084 0.09919677 -0.079222605 -0.08527463
0000a0 59 ae 7a bd ec 8a e4 bd 7e 41 af 3d 69 eb 7d 3d
       -0.061201427 -0.1115931 0.085574135 0.061992083
0000b0 ca b3 60 bd 65 7d ab 3d f1 ce 59 3d dc 8f c2 bd
       -0.05485896 0.083735265 0.05317587 -0.09500095
0000c0 2f 87 a0 3d 40 51 9a 3d 1d e0 84 bd 41 52 de bd
       0.07838284 0.075350285 -0.06488059 -0.108555324
0000d0 90 36 b5 bd 13 48 45 3d ff 95 07 be 41 8d a4 3d
       -0.088482976 0.04816444 -0.13240813 0.080347545
0000e0 7e 5e 9a bd bd d9 52 bd ef 2a 01 bd 91 39 bb bd
       -0.07537554 -0.051477183 -0.031535085 -0.09141839
0000f0 7b 30 89 bd fc a3 e0 bd 2d 62 c9 3d f6 7c aa 3d
       -0.066987 -0.109687775 0.09833179 0.08324616

disc.1.bias f4 [64]
000000 aa b8 00 bd 30 b3 0d bd 5e 49 7f bd 53 35 c8 bc
       -0.03142611 -0.034594715 -0.062325828 -0.02443949
000010 b8 80 99 bd 3c 48 75 3d 2a c0 35 bd 4d ef 30 bd
       -0.07495254 0.05988334 -0.044372715 -0.043196965
000020 28 b9 ab bd 3d 23 3c bd 5f 4c 7d bd 0d bd cb 3c
       -0.08384925 -0.045932043 -0.06184041 0.02487042
000030 9e 70 48 bd c1 35 ac bd 69 aa d4 3c e5 b7 10 3d
       -0.048935525 -0.0840869 0.025960164 0.035331625
000040 20 cd 7b 3d ef ee 1b bc ef d8 3b 3a a6 06 a2 bd
       0.06147492 -0.009517415 0.00071658095 -0.07911424
000050 8b 00 2d bd 88 7f 18 b9 8a 5d 3f bd fb b3 1a bd
       -0.042236846 -0.00014543359 -0.046720065 -0.0377693
000060 d3 a4 33 bd e2 97 19 bd 70 99 99 bb 96 2b 78 bd
       -0.04385836 -0.037498362 -0.0046874806 -0.06058844
000070 cc c4 91 bd 2f d9 36 3d c1 b7 91 bd 91 52 46 bd
       -0.07117614 0.044640716 -0.071151264 -0.048418585
000080 eb 51 5f bd f5 4f fb bd bf 29 61 bc a5 43 9e bd
       -0.054521482 -0.1227111 -0.013742863 -0.07727746
000090 f9 fe 1a bd 58 c8 c1 bd 7a 79 3f bb 68 3c f1 bd
       -0.037840817 -0.09462041 -0.0029216693 -0.117791
0000a0 02 c6 a2 bd 58 10 18 bd d7 c0 3d bd ee f6 75 bd
       -0.07947923 -0.03712496 -0.046326485 -0.060049944
0000b0 fb f1 22 bd 11 1c 38 bd da 68 20 bd 8f ed 85 bd
       -0.03978155 -0.04494864 -0.039162494 -0.06539451
0000c0 22 4f 22 bd 58 c0 92 bd ec 14 cc bc 41 ce a7 bd
       -0.03962625 -0.07165593 -0.02491232 -0.08193637
0000d0 db 66 a0 bd a5 54 72 bd 07 58 1e be 0b 3e e1 bd
       -0.07832118 -0.059162755 -0.15463267 -0.10998162
0000e0 fa ad 8f bd 7a 05 4f bd 29 44 2d bd bd a4 25 3d
       -0.07015605 -0.050542332 -0.04230133 0.04044031
0000f0 52 1f ab bd be 9a 06 be a9 94 98 bd c0 79 a6 bd
       -0.08355583 -0.13144967 -0.0745023 -0.08128691

disc.1.running_mean f4 [64]
000000 1d 27 23 3e c6 00 c4 be 27 65 ac be 1a b0 2e 3d
       0.1593289 -0.3828184 -0.33670923 0.042648412
000010 72 09 bd 3e 44 69 84 bd 08 4b a8 be 1d 3e c8 be
       0.3692127 -0.0646539 -0.32869744 -0.3910989
000020 cc b2 b2 3e 6a b3 b8 3e d1 7c 06 be 48 c9 69 3e
       0.34902036 0.36074382 -0.13133551 0.22830689
000030 f5 a4 9d 3e 2e cd e1 bd 4e 26 6b 3e ab 32 48 3d
       0.30789915 -0.11025463 0.22963831 0.048876446
000040 b7 59 7b bf 51 07 d0 3e e9 4e 28 3e b1 7e 46 bf
       -0.9818377 0.40630582 0.16436352 -0.77537066
000050 41 19 31 3f 2d 9a 07 bc cd 0d 99 be d0 3e 0b 3f
       0.6917916 -0.008276504 -0.29893342 0.5439272
000060 d0 5c 33 3e aa 83 e5 3e 2c c2 79 3e 5b 1f 0e 3d
       0.17515874 0.44827014 0.24390477 0.03469787
000070 0a a8 f0 3c ba 20 ae be 54 49 21 3f 0d 4a c5 3d
       0.029377002 -0.34009343 0.63002515 0.09633265
000080 e5 b2 bb 3e 15 ac c7 bd b2 42 08 bf e7 5a 83 3d
       0.36659923 -0.09749619 -0.5322677 0.064138226
000090 ab 8b ce be df a1 47 3e 25 62 93 be 48 77 b8 3b
       -0.40340933 0.19495343 -0.28785816 0.005629454
0000a0 90 5a b9 3e 26 68 1d bf 2e e8 0f 3f c8 16 e3 b9
       0.36201906 -0.6148704 0.56213653 -0.00043313787
0000b0 38 c9 ab bf e7 4a 60 3e a7 e6 a9 3f ea 94 2e be
       -1.3420782 0.21903573 1.3273515 -0.17048994
0000c0 e2 0c 2f 3c 15 3a d2 3f bc 83 4e be 7d 08 e9 be
       0.010684224 1.6423975 -0.2016744 -0.4551429
0000d0 0f 01 6a bd be ec 9c 3b 44 85 3d be 41 59 27 bd
       -0.057129916 0.004788964 -0.18507868 -0.040856604
0000e0 8b b6 04 3d 72 f2 27 3f c1 6a 04 3f bc ab 70 be
       0.03240065 0.6560432 0.51725394 -0.23503011
0000f0 2a 44 15 be a3 ea 86 be 5e 9f f5 3e 66 b7 b0 3e
       -0.14576784 -0.2635089 0.4797315 0.34514922

disc.1.running_var f4 [64]
000000 86 ce 3e 3d 46 bc aa 3d c1 8d 79 3e 36 87 9a 3f
       0.046583675 0.083366916 0.24370481 1.2072513
000010 6b 80 09 3d d3 cc 38 3d e4 6b 8f 3e 31 a4 24 3e
       0.033569735 0.04511721 0.28012002 0.16078259
000020 1c 78 0d 3e 70 8c 65 3e c2 ee 3c 3e 1d dc 35 3d
       0.1381535 0.22416854 0.18450454 0.04439937
000030 2c d0 90 3c ff c0 8e 3d b2 ec 94 3f 9c f9 74 3f
       0.01767739 0.06970405 1.1634734 0.95693374
000040 f4 28 f6 3e c4 56 02 3f b7 9f 4f 3c 3e cd d8 3d
       0.4807812 0.50913644 0.012672356 0.10586022
000050 e6 33 93 3e 9f cc c3 3d b5 39 28 3d 09 8d ae 3e
       0.28750533 0.09560513 0.04107066 0.34091976
000060 30 06 bb 3e 1c 7a 34 3d 04 55 5f 3e 16 61 3c 3e
       0.36528158 0.044061765 0.21809775 0.1839641
000070 57 de a2 3e 41 7d 8c 3f 96 83 00 3f 9f 72 95 3e
       0.31810257 1.0975724 0.50200784 0.2918901
000080 39 c4 bc 3e e8 19 28 3e 38 37 01 3e c7 1a 66 3e
       0.36868456 0.16416132 0.1261872 0.22471152
000090 cf 51 83 3e ba 52 56 3c ab e2 4e 3c 89 a5 2b 3d
       0.25648353 0.013081247 0.012627284 0.041905914
0000a0 6b 7d af 3e 63 27 88 3d a5 e5 94 3e 04 cb 79 3e
       0.34275374 0.066481374 0.29081455 0.2439385
0000b0 02 1b 46 3f af db 22 3d 0e 09 36 3f 62 a4 54 3c
       0.7738496 0.039760288 0.71107566 0.012978645
0000c0 7f 3e d0 3d a6 01 77 3f 04 38 39 3d e1 87 f1 3d
       0.1016817 0.9648689 0.045219436 0.11793495
0000d0 46 e1 85 3e 83 af 3b 3e 86 16 2f 3d f2 c0 c4 3d
       0.26148432 0.18328671 0.04274609 0.09607114
0000e0 68 fa 3e 3d 8e b7 0c 3f a5 07 0d 3f 5d 3d fd 3c
       0.046625525 0.5496758 0.5508979 0.03091305
0000f0 89 43 a6 3d f5 2b 0f 3d e9 37 82 3d 4e f1 ad 3e
       0.0811835 0.03495403 0.0635832 0.33973163

disc.3.weight f4 [128, 64, 4, 4]
000000 8d 48 dc bd 83 86 da bd 82 4b 63 bd 93 cf e1 bc
       -0.107560255 -0.10670187 -0.05549193 -0.0275648
000010 88 a8 08 3c c0 3e 5c bd 99 e9 91 bb d5 01 00 bd
       0.008340962 -0.05377078 -0.004452896 -0.031251747
000020 8f 9b 68 3c ab 01 84 bb 46 d7 56 3d 28 31 88 bc
       0.014197244 -0.004028519 0.052451394 -0.016625002
000030 92 90 89 3c 82 fd 45 be db d2 8e bd 89 06 5e 3d
       0.01679257 -0.19334987 -0.06973811 0.05420545
000040 77 ae 27 be 32 e3 00 3e d6 84 ce 3d 04 a4 ec 3d
       -0.16375147 0.12586668 0.1008393 0.11554721
000050 cf 3f cd 3c fd 18 f2 3d 39 37 fb 3d d2 b6 a1 3e
       0.02505484 0.118211724 0.12266392 0.31584793
000060 cf df 99 3c 05 ec 37 bd ab b3 1f 3d fb b2 17 3e
       0.018783478 -0.04490282 0.038989704 0.1481437
000070 cb 4a fc bc 98 07 10 be cb d3 ae bd b7 10 17 3e
       -0.030797383 -0.14065397 -0.0853649 0.1475247
000080 f2 6c 3a bd e3 48 a4 bd 26 9b b3 bd ca 1d f7 39
       -0.045514055 -0.080217145 -0.087698266 0.00047133706
000090 ec 0b 89 bd 99 16 25 bd 65 41 9a bb 00 11 1a 3d
       -0.06691727 -0.040304754 -0.0047075027 0.03761387
0000a0 f3 5f aa bc c7 34 6d bd 3f 1b 18 be d5 92 ab bc
       -0.020797705 -0.05791166 -0.14854144 -0.020944038
0000b0 7d e7 84 3d 23 c2 9e bd 75 a5 f6 bc ba 4a 9e 3d
       0.064894654 -0.077518724 -0.030108193 0.07729097
0000c0 4a 84 97 3d ea 45 83 3d f6 03 0c 3b 7a 4f a9 3d
       0.07398279 0.064098194 0.0021364666 0.08267112
0000d0 bf 1a 5d 3d 59 92 31 3d c9 2e 05 3d 83 72 a8 3c
       0.053980585 0.04335246 0.03251532 0.020562416
0000e0 5a b3 b4 3c 07 c1 48 3d cd 8c 4a 3d 48 4c d6 3c
       0.022058178 0.04901221 0.049450684 0.02615942
0000f0 02 98 94 3c fa af b8 3c 8c 65 84 3d bd b5 3f 3c
       0.01813889 0.02254485 0.06464681 0.011701045
000100 bf d5 80 bc ba 23 5d 3d e9 c4 88 3d 72 56 c0 3b
       -0.015726922 0.05398915 0.06678183 0.00586968
000110 ea 93 fa 3c c6 3b 74 3d f3 e8 66 3c 32 6e f6 3d
       0.030588109 0.059627317 0.014093625 0.12032737
000120 a4 1f 91 3d bd ae 4c be eb ab 0f be d1 82 1c 3d
       0.07086113 -0.19988532 -0.14030425 0.038210694
000130 4d 55 98 bc 63 bd 0d be a6 5f 3b be 2c b8 d2 bd
       -0.018595362 -0.13841777 -0.18298206 -0.10289034
000140 07 39 53 bd af 3b f0 3d d6 d7 31 3c 4f 60 5b 3d
       -0.051568057 0.11730134 0.010854682 0.053558644
000150 95 b4 aa 3d f8 ea d8 3d 3c d1 a3 bc 80 cf 15 3d
       0.083352245 0.10591692 -0.019997232 0.03657484
000160 9d 33 95 3d f6 d4 2c 3d 06 06 22 bd 48 5a 0a bc
       0.07285235 0.042195283 -0.039556526 -0.008444376
000170 6b b5 8f 3b 9a c9 16 bd bb e2 f8 bd be 60 5d 3c
       0.0043856404 -0.036813356 -0.121526204 0.013511835
000180 33 50 e2 3d ed f3 ac 3d cd 1b 83 3d df 51 6a 3d
       0.11050453 0.08444963 0.06401787 0.057206985
000190 ab a9 a8 3d 31 e0 cb 3d a0 db 0c 3d 44 ba a1 3d
       0.082354866 0.099548705 0.03438914 0.078968555
0001a0 c4 ae 89 3d 15 c9 70 3d a3 43 3d 3d 04 c5 17 3e
       0.06722787 0.058785517 0.04620708 0.14821249
0001b0 be d0 17 3e 2d 67 35 3e d2 6c 16 3e 7c a9 fa 3d
       0.14825723 0.1771514 0.14689949 0.12239358
0001c0 79 0a c2 3d a5 7b 84 3c d4 04 f8 bb eb c5 4f 3d
       0.09474654 0.01617224 -0.007568935 0.05072586
0001d0 d1 77 37 bd 90 36 ab ba d7 21 bd 3d 8e 0d f7 3d
       -0.044792 -0.0013062526 0.0923497 0.12063132
0001e0 a5 db a4 bd 2d b8 40 bb 94 74 11 3d 32 15 42 3c
       -0.08049706 -0.0029406652 0.03551157 0.011845874
0001f0 3f c5 96 bd c5 4c 4a be ff ce 45 3d e3 e1 84 3c
       -0.073618405 -0.19755848 0.04829311 0.016220992
000200 16 af 89 3d 86 fd 62 3e 63 78 2f 3d cf b4 82 3d
       0.06722848 0.22167024 0.04283942 0.06382143
000210 2f 58 03 3d 29 b9 ef 3d 16 26 02 3e 29 ce b2 3d
       0.03206652 0.11705238 0.12709841 0.08730728
000220 65 4c 1a bd dc 37 b0 3c 59 22 87 bd 2b ce 2d b7
       -0.03767051 0.02151101 -0.06598348 -1.0359606e-05
000230 38 8d db 3d 32 52 28 bd 5e 66 6a 3d 52 0d 8e 3d
       0.10720295 -0.041094013 0.05722653 0.069361344
000240 ff f7 89 3b 9e 15 f0 bd 1e ae c2 3d 12 56 6a 3d
       0.0042104716 -0.11722873 0.095058665 0.05721099
000250 36 b9 88 bc 03 90 91 3d 01 2c a4 3d 9c 96 fc bd
       -0.016689878 0.07107546 0.080162056 -0.12333414
000260 ac d6 b2 bc cd 47 52 3d d1 f2 82 3c a3 56 9f bd
       -0.02183088 0.051338006 0.015984925 -0.077801965
000270 38 c6 86 3d 21 ac c4 bd a5 9e 05 bb 59 c6 1b be
       0.06580776 -0.096031435 -0.002038875 -0.15212382
000280 9e a0 5e 3d f1 33 37 bc 3d 47 40 3d 90 72 ac 3c
       0.054352395 -0.011181817 0.046942938 0.021050721
000290 69 73 10 3d 62 b7 fb bd 88 b3 e4 3d f2 d5 ad bd
       0.035266314 -0.12290837 0.11167055 -0.084880725
0002a0 6a dd 48 3d f5 ea 91 bd 0f b5 89 3d be 9a 47 be
       0.049039282 -0.071248926 0.06723987 -0.19492623
0002b0 e5 01 9d 3d 55 50 22 bd ac c4 eb b9 7c ca 6e be
       0.07666377 -0.03962739 -0.00044969225 -0.23319429
0002c0 a9 db fc bd b9 dc d6 bd 4d e1 83 3d 5b 27 c1 3b
       -0.12346584 -0.10491318 0.06439457 0.005894584
0002d0 6c 0c 8a bd 22 c5 8c bd 9f 24 4a 3d 60 d7 22 3e
       -0.067406505 -0.068735376 0.04935133 0.15902472
0002e0 6f f9 e3 3d 78 ee 94 3d 11 f6 36 3d 31 40 84 3b
       0.1113156 0.07272047 0.04466826 0.0040359725
0002f0 bc 4b b5 3d d6 09 1a 3c f3 a1 ec bc b0 f9 90 bd
       0.08852336 0.009401759 -0.028885817 -0.07078874
000300 a6 73 84 3a 50 b2 99 bc a3 4d 1c 3e b3 f9 a4 3c
       0.0010105267 -0.018761784 0.15263991 0.020138597
000310 1e f2 9c bd 6c ff 0b 3d 73 47 0a bd 65 df 52 3e
       -0.07663368 0.034179136 -0.033759546 0.20593031
000320 69 35 75 bd eb 8f 46 bc 4a 2a ad bd 7f 2e 29 3d
       -0.05986539 -0.012119274 -0.084553316 0.041304108
000330 0c 49 bb bd 68 a9 b0 bc 8f 74 90 3d 7c f6 4f 3d
       -0.09144792 -0.021565154 0.07053482 0.050772175
000340 b4 56 b5 3d df 57 97 3d 0f ee 44 3e d7 14 3b 3d
       0.08854428 0.07389807 0.19231437 0.04567417
000350 90 30 ec 3d 17 68 e5 3d 36 c3 33 3d b6 89 26 3d
       0.115327 0.11201494 0.04388734 0.040658675
000360 f7 19 32 3e 64 38 58 3d ea 5a b3 3d 42 4e b7 3d
       0.17392717 0.052788153 0.08757575 0.08950473
000370 5f f5 05 3e 11 98 b9 bc 53 2a 9b bc fd aa 23 be
       0.13081883 -0.022655519 -0.01894108 -0.15983196
000380 b0 f8 3d 3c c5 5d 4e 3d 56 a2 8e bd 22 69 a8 bc
       0.011594936 0.050382394 -0.06964557 -0.020557944
000390 34 ac 8b 3d 55 de 40 3c 85 7c 41 bc c7 02 49 3c
       0.068199545 0.011771758 -0.011809473 0.012268729
0003a0 ee 46 13 3d 67 21 ac bc c2 b0 9f bc 69 b0 df 3b
       0.035956316 -0.021012021 -0.019493464 0.0068264497
0003b0 cd bd 03 bc 90 86 e5 bc 79 6b 17 3b 47 55 8e 3d
       -0.0080408575 -0.028018266 0.002310483 0.06949859
0003c0 81 88 86 3d 9e 43 1b bd 16 c2 27 3d 53 1d 24 bd
       0.06569005 -0.03790628 0.04095658 -0.04006703
0003d0 82 25 e6 3c 2c 27 03 3b 26 82 6d bd 66 e6 3a 3b
       0.028094057 0.0020012362 -0.057985447 0.0028518676
0003e0 bc 76 a7 bb 24 2e 22 3d a4 2e 82 3b 8e d2 cd bc
       -0.00511059 0.039594784 0.003972845 -0.025124814
0003f0 09 f0 92 bc ee ec 42 bd ad 21 82 3c 3f 67 27 bd
       -0.017936723 -0.047589235 0.015885198 -0.040869948

disc.3.bias f4 [128]
000000 c9 8b 1c 3c 74 63 d5 3c 4a e6 6f bd 02 50 ac 3c
       0.009554812 0.0260484 -0.05856923 0.021034244
000010 ee ef fa bc 4d b8 1f bd c7 19 0b bd 26 fe cb ba
       -0.030631986 -0.038994122 -0.03396013 -0.0015563413
000020 98 3b 87 3c b1 b4 9b 3d ee 26 31 3b 68 8e a7 3d
       0.016507909 0.076028235 0.002703126 0.08181459
000030 33 91 19 bd 0f 57 d0 bc 1e a8 9f 3c ab 38 52 bb
       -0.03749199 -0.025432138 0.019489344 -0.0032077234
000040 dd cf 2e bd 9c 98 53 3d df a8 c2 3a 60 71 ee 3c
       -0.042678703 0.05165921 0.0014851353 0.029106796
000050 d1 b8 81 3c 52 02 3e bd 9a b9 4c bd d4 8c 76 3d
       0.015835198 -0.04638893 -0.04998169 0.060192898
000060 92 cd 9b 3d d9 44 01 3c 34 de cd 3c d7 90 80 3c
       0.07607569 0.00788995 0.025130369 0.015694065
000070 df 01 4e bd d7 41 76 bc 7e 83 e5 3b 75 12 b9 3c
       -0.050294753 -0.015030346 0.0070042005 0.022591809
000080 42 9f 00 3d ca ec 4b bd 4c 58 76 bd 8b 3f 2f bd
       0.03140188 -0.049786367 -0.0601428 -0.04278521
000090 58 20 a2 bc db 78 18 bd 7d 51 d8 bc b0 a3 33 bd
       -0.019790813 -0.03722463 -0.026406044 -0.043857276
0000a0 b4 27 bf 3c 01 f3 42 3d 9c 62 df bc da ee f8 bc
       0.023334362 0.047595028 -0.0272687 -0.03038733
0000b0 78 59 ac 3d 35 b4 79 bc 50 8a 89 3d ab 1e a7 3c
       0.08415502 -0.015240719 0.06715834 0.020400366
0000c0 69 21 84 3d 9d c2 e7 3c 4a ed 58 bd ea 9a cd bc
       0.06451685 0.028291041 -0.05296067 -0.025098283
0000d0 7b a1 86 bd 93 08 ec bc 76 4f 74 3c b2 8d 66 bd
       -0.06573769 -0.028812682 0.014911523 -0.056287475
0000e0 bd 12 a5 3c 77 63 63 bb 87 0e 3c bc 50 00 93 3d
       0.020150537 -0.0034696737 -0.011478073 0.07177794
0000f0 4f ae f8 3b a7 c2 66 39 da 44 88 3c d9 9b 94 3b
       0.0075891386 0.00022007023 0.016634393 0.00453518
000100 28 9b df bb f1 9b 96 3d 8a 55 bf 3c 79 f9 9c 3c
       -0.006823916 0.07353962 0.023356218 0.019161927
000110 31 3f 50 3d 71 fb 48 3c a8 6d 82 bc f2 89 7e 3d
       0.050841514 0.01226698 -0.015921429 0.062143274
000120 c2 dd 87 3c e9 dd b1 3c 62 70 45 3d de 8b 40 bc
       0.016585235 0.02171226 0.04820288 -0.011752097
000130 d9 11 7e bd 80 2a 99 3c e7 ca 1e bc d3 61 47 bd
       -0.06202874 0.018697023 -0.00969193 -0.048677277
000140 e2 8d d9 3c d6 f6 3a bd fe 55 a9 3d fc 0e c6 bc
       0.026556913 -0.045645557 0.08268355 -0.024177067
000150 db 30 93 bd 0b ef 74 3d aa 16 9c bd be b7 17 3c
       -0.07187053 0.05979828 -0.0762151 0.009260116
000160 4a 6d f5 bb e0 54 52 bd 0f db 15 bd e3 0d 84 bd
       -0.007489835 -0.051350474 -0.036585864 -0.06447961
000170 95 34 82 3d aa ba a2 bc 85 13 0a 3d 95 52 81 3c
       0.063576855 -0.019864399 0.03371002 0.015786448
000180 86 5e ba 3c ec 64 cf bb ea 9f 88 bd 3a 57 6d 3d
       0.02275015 -0.0063291695 -0.06671126 0.057944514
000190 fa b3 b1 ba 01 d3 bd 3c 09 82 87 3c 42 f8 4a bd
       -0.0013557666 0.023171904 0.016541498 -0.049553163
0001a0 bb ad 6b bd a8 ef 22 3d 45 9a 9f bc da 37 65 3d
       -0.05753873 0.039779335 -0.019482741 0.055961467
0001b0 f3 80 33 bd 4b a7 f1 bc 50 8f 43 bd 67 cb c7 3a
       -0.043824147 -0.029498717 -0.047744095 0.0015243114
0001c0 db 4a 21 3d 32 55 16 3d d1 d9 a9 3c 7d b0 c5 3b
       0.03937803 0.036702342 0.020733746 0.006033002
0001d0 ed ac e5 bc 6f 54 30 bc 3d 33 0e bd aa 02 f5 ba
       -0.028036559 -0.010762318 -0.034716833 -0.001869281
0001e0 80 cb 6a bd 96 76 c4 3d fe d4 2a b9 59 d8 78 bc
       -0.05732298 0.09592931 -0.00016291809 -0.0151883
0001f0 ec b2 2c bd 7b a7 cb 3c 47 ed 32 bd 2f 2b 6b bd
       -0.04216282 0.024860134 -0.043683317 -0.05741423

disc.4.weight f4 [128]
000000 f9 f1 d2 be 02 fd 02 bf bf 39 ea be 44 5b a2 be
       -0.41200235 -0.5116731 -0.45747182 -0.31710255
000010 a9 9e d6 3e 05 79 ef 3e 08 ea fa 3e bd 3a c2 3e
       0.41917923 0.46772018 0.49006677 0.3793544
000020 28 9e d2 3e e1 aa e1 3e db 24 ba 3e 4f fc c5 3e
       0.4113629 0.44075683 0.36356243 0.3866906
000030 f5 91 17 3f fd 63 f0 3e 06 f4 e8 be 9f 65 c2 3e
       0.5920709 0.46951285 -0.45498675 0.37968156
000040 21 4b c9 be d0 18 fa be 3e e6 e4 be 78 fe ea 3e
       -0.3931513 -0.48847055 -0.4470691 0.4589727
000050 21 b3 e4 3e 35 d6 c4 be e2 74 00 bf e4 88 13 3f
       0.44667915 -0.38444677 -0.5017835 0.57630754
000060 4d a9 d4 3e e0 dd 0b bf 40 26 c7 3e 68 59 e7 be
       0.41535416 -0.5463543 0.3889637 -0.451854
000070 ef 51 06 bf 79 ae a6 3e 26 bd f2 be d4 ea e6 3e
       -0.5246877 0.32554987 -0.47409934 0.45101035
000080 19 ee ec be 10 d7 e5 be 19 4d 16 bf e8 1b d7 be
       -0.46275404 -0.44890642 -0.5871139 -0.42013478
000090 65 33 a7 3e 15 f9 ea be 2a 81 ee 3e 54 96 c5 be
       0.32656398 -0.4589316 0.4658292 -0.38591254
0000a0 42 3a f7 3e d4 0a 11 3f a9 53 d0 be f6 7e ef be
       0.48286635 0.5665715 -0.40688828 -0.4677655
0000b0 16 ab f2 be a8 cb c2 3e 6e 1f a7 be a0 a0 c9 3e
       -0.47396153 0.38046002 -0.32641166 0.3938036
0000c0 17 82 f0 be 9f 35 d1 be 7b 8d df 3e 5f 75 d0 be
       -0.4697425 -0.40861222 0.4366263 -0.40714547
0000d0 c4 37 f6 be a4 85 d0 3e 55 c4 e7 3e 72 27 e0 3e
       -0.4808942 0.4072696 0.45266977 0.43780094
0000e0 c0 73 a0 3e 53 7c 0b bf 52 94 ee 3e bc ad fe 3e
       0.3133831 -0.5448658 0.46597534 0.49741924
0000f0 cb d6 df be 33 0e d5 be 28 37 0e bf 99 a4 1d bf
       -0.43718562 -0.41612396 -0.5555291 -0.6157928
000100 7e 5b 02 3f b4 b6 0d bf e9 72 fa be ac 63 b6 be
       0.50920856 -0.5535691 -0.48915794 -0.3562292
000110 07 f2 f3 3e d6 10 f5 be 6d cb fc be 3f b7 01 3f
       0.4764559 -0.47864407 -0.49373952 0.50670236
000120 2a 32 d7 be f1 2f c0 3e 98 44 d6 3e 6e 70 e6 3e
       -0.4203046 0.37536576 0.41849208 0.45007652
000130 01 e8 07 3f 48 5b 0a bf ce 98 02 bf 3e 0b d8 3e
       0.53088385 -0.54045534 -0.5101441 0.42196077
000140 e9 be ed be d5 45 fd 3e 75 94 ef be fe 61 08 bf
       -0.46434715 0.4946734 -0.4679295 -0.53274524
000150 d9 d6 0f 3f 66 9f c7 3e 9e 4e 05 bf 31 40 d7 be
       0.56187207 0.389888 -0.52073085 -0.42041162
000160 81 20 d3 be 6e e1 bd be 63 d8 1c bf 87 7b c8 be
       -0.41235736 -0.37086052 -0.6126768 -0.39156744
000170 b5 f2 ea be 3f 68 f7 3e 1c 80 0d bf 68 db d0 be
       -0.45888296 0.4832172 -0.55273604 -0.40792394
000180 ab 9a ff 3e 5d e9 f0 be b4 5c e7 be d1 f4 b6 be
       0.4992269 -0.47053042 -0.45187914 -0.35733655
000190 18 d6 cd be e6 fb cd 3e 8f 4a cb 3e 60 b3 cb be
       -0.40202403 0.40231246 0.3970532 -0.3978529
0001a0 9e bf f0 3e 76 5f 1a bf 83 64 c4 be bd 69 c8 be
       0.47021192 -0.6030191 -0.38357934 -0.39143172
0001b0 63 73 9e be ad 03 05 3f 86 51 e3 3e a7 88 f7 be
       -0.30947408 0.51958734 0.44398135 -0.48346445
0001c0 a2 84 13 bf 7c 41 fa 3e e8 de f4 be f4 a5 14 3f
       -0.57624257 0.48878086 -0.47826314 0.58065724
0001d0 35 cc cd be 23 c9 e3 3e 75 93 0e bf 9c 58 d6 be
       -0.4019486 0.44489393 -0.5569375 -0.4186448
0001e0 9e f6 ee 3e e2 49 1c 3f e9 04 18 bf b8 43 d7 3e
       0.4667253 0.61050236 -0.5938249 0.42043853
0001f0 a4 8e 12 bf 54 b3 00 bf 94 03 dd be e0 25 db 3e
       -0.572489 -0.50273633 -0.43166792 0.42802334

disc.4.bias f4 [128]
000000 89 93 1a 3e e5 c8 ba 3d 3b d2 f7 bc 39 95 8e b9
       0.15095343 0.09120349 -0.030251613 -0.0002719553
000010 27 44 36 bd 71 1f 3e 3c e9 8c 0c be 9f 4e f9 bb
       -0.04449859 0.011604176 -0.13725628 -0.0076082493
000020 9e f8 f6 bd b1 24 94 3d 87 88 d3 3c 7f cf d9 3b
       -0.12059139 0.07233561 0.025821937 0.00664705
000030 ee 6f b6 bd 7d 7a 6c be c0 22 c6 bd 5b 39 15 bc
       -0.08908068 -0.230936 -0.09674597 -0.009107913
000040 05 f7 aa bd 81 59 bd bb 54 d3 d0 bc 6d 9e c8 bc
       -0.083478965 -0.005778492 -0.025491394 -0.024489606
000050 20 81 c9 bd ae 49 76 3b 3a 2a 2e be 28 42 42 be
       -0.09839082 0.0037580538 -0.17008296 -0.18970549
000060 ef 1c 8d bc 21 a0 ec bb 4a 62 aa bd 60 cc 83 bc
       -0.01722571 -0.0072212373 -0.083195284 -0.016088665
000070 68 25 a0 3c 08 1a 51 bd aa 60 a4 bc 19 19 0c be
       0.019549087 -0.051050216 -0.020065624 -0.13681449
000080 b4 f3 2b bd 81 10 d9 bc 85 c4 a0 bd c9 ba 59 bd
       -0.04198046 -0.026497127 -0.07849983 -0.053156648
000090 38 74 a2 3b a6 0d 6a bd 77 29 95 39 2a f6 9d 3d
       0.004957702 -0.057141922 0.00028450388 0.07712968
0000a0 db dc 93 bc 4e 49 95 bd a1 de eb bd f4 78 bb 3d
       -0.018049648 -0.072893724 -0.115170725 0.09153929
0000b0 25 68 39 bd 40 4c d5 3c fc dc 1f 3c 0e 5e 5c 3d
       -0.045265336 0.026037335 0.009757277 0.053800635
0000c0 ef ae 99 ba f8 db de bd 90 3c 9e bc 64 ab 4f 3c
       -0.0011725108 -0.108817995 -0.019315988 0.01267514
0000d0 3b 6f b2 3c 1c 27 2c bc 3f 28 88 be 96 0b af bd
       0.021781554 -0.010507371 -0.26593205 -0.08547132
0000e0 b4 b1 f5 bc be 0c f2 bd 31 0d 6e bd 62 a0 02 bc
       -0.029991962 -0.11818837 -0.05811805 -0.007972809
0000f0 7d 15 f0 bd be bb c0 3c d6 10 c7 bd 32 c7 1d 3c
       -0.117228486 0.023527022 -0.09720008 0.009630011
000100 9d 60 db bd af ad 89 3c 5e 22 12 be 5c 05 47 3c
       -0.10711787 0.016806452 -0.14270923 0.012147274
000110 82 5b aa bd 68 82 bc bd 84 00 f5 bd e7 0b 5b 3d
       -0.08318235 -0.092045605 -0.11962989 0.053478148
000120 ea 6d a3 bd 05 71 a3 3b 60 fa ba bd 2f bd fe bc
       -0.07979949 0.004987838 -0.091297865 -0.03109607
000130 17 f0 c9 bd 3e d8 7c bd a8 50 62 bd e6 6e 3f bb
       -0.09860247 -0.061729662 -0.0552527 -0.0029210388
000140 9f 94 ee bd 9b 57 a2 bd 9b 48 cc bd 1e d3 e4 bc
       -0.11649441 -0.07926866 -0.09974786 -0.0279327
000150 60 b8 91 bb 7f 9c 02 3c 00 ec 02 be a9 41 40 bd
       -0.004447028 0.007971882 -0.1278534 -0.04693762
000160 09 fc 08 3d 19 ef 0f be 95 f1 d0 bd a4 91 09 bd
       0.033443484 -0.14056052 -0.10202328 -0.03358616
000170 7a 79 91 bd 45 45 3e 3c 53 31 5d be 08 ab 9b bd
       -0.07103248 0.011613195 -0.21600847 -0.07600981
000180 0a 40 8d bd 7d 5e 09 be 46 4e e6 bc b5 3d 81 3d
       -0.0689698 -0.1341495 -0.028113496 0.06310598
000190 a8 5f 1c bd 91 eb 0e bd 5b e1 86 bd 28 8d 28 bb
       -0.038177162 -0.034892622 -0.06585952 -0.0025718901
0001a0 45 5e 45 bd 67 d5 e0 bd 6e 01 31 bc aa 3c 89 3d
       -0.048185606 -0.10978203 -0.0108035635 0.06701024
0001b0 0f a7 ad 3c 86 75 78 bd 51 47 1e bd 83 5c c1 bd
       0.021197824 -0.060658954 -0.03864223 -0.09441473
0001c0 41 52 2f bd d9 9d af bd b7 a2 58 bd 90 47 40 be
       -0.042803053 -0.08575029 -0.052889552 -0.18777299
0001d0 3c b5 f5 bd aa 8c 11 be 7f d4 aa bd 05 68 1e be
       -0.11997458 -0.14213815 -0.08341312 -0.15469368
0001e0 ac c9 ca bd cb 5b f3 bd d9 6e 5b bd c4 1f 6f 3c
       -0.09901747 -0.118827425 -0.05357251 0.014594976
0001f0 26 cd ff bb 2a da f3 bc fb b5 e7 bd 4d fa 41 3d
       -0.007806438 -0.029767115 -0.11314007 0.047357846

disc.4.running_mean f4 [128]
000000 d3 74 88 bc d4 bc b7 3d 00 a2 81 be 0e 38 a0 bd
       -0.016657269 0.08971563 -0.2531891 -0.078231916
000010 18 21 56 bd ff 31 a8 bd 8e a1 68 bd 81 96 8e bb
       -0.052277654 -0.08212661 -0.056794696 -0.0043514376
000020 f4 05 59 bd f6 0f 81 3d 33 d6 9b 3d 6d 16 3a bd
       -0.052984193 0.063018724 0.07609215 -0.045431543
000030 b7 f3 dd bc a9 53 93 3d eb ab 58 bd 3e ef 7f bd
       -0.027093751 0.07193691 -0.05289833 -0.06248402
000040 0d 97 9b bd 70 96 64 3d de 91 82 bd 8d 4e a2 bd
       -0.0759717 0.05580753 -0.06375478 -0.079251386
000050 1d a5 08 3e a9 00 7b 3d 73 87 e1 3c 96 7f c6 3c
       0.13344236 0.061279926 0.027530408 0.02423076
000060 49 8e 1f 3d cc f2 8f 3d 93 c5 92 3d a4 12 f7 3c
       0.038954053 0.07028732 0.071665905 0.030160256
000070 d2 5f af bc 3f 90 1a bd 53 98 a3 bc f5 bf 5f 3d
       -0.021407995 -0.03773522 -0.019970095 0.054626424
000080 a6 21 8b bc 96 15 1d be 8b 8f 99 bd 3b cd 01 bd
       -0.016983818 -0.15340266 -0.07498082 -0.031689864
000090 fe cc f4 3d 67 e5 1c 3c 62 67 87 bd 73 c7 91 3d
       0.11953162 0.009576178 -0.066115156 0.0711812
0000a0 7c 81 0e bd 4a 57 02 3d fa de e2 bd 40 a6 83 bd
       -0.034791455 0.031821527 -0.11077686 -0.06428194
0000b0 4f 92 d4 bd 8b 71 47 3d db 10 ae 3d 96 c0 bc bd
       -0.10379469 0.048692267 0.08499309 -0.0921642
0000c0 fb fa 44 3e 9b 1f 28 3d 10 8f 20 3d 85 68 b1 3d
       0.19236366 0.041045766 0.039198935 0.08662514
0000d0 11 41 07 bd 20 5e a9 bd 07 c0 08 bd 0e bc 1f bc
       -0.033021037 -0.08269906 -0.033386257 -0.009749426
0000e0 79 db 07 3d 89 f8 3d be 26 c3 14 be 5b 05 13 bd
       0.03316829 -0.1855184 -0.14527568 -0.03589378
0000f0 e8 9c 99 3c 3f 2d 2c 3d db 26 8b bc 97 55 84 3c
       0.018751577 0.042035338 -0.016986301 0.016154094
000100 ce 4f 9f 3d bf 17 98 3d f5 bd 6e 3c c2 ba 0d 3e
       0.077788934 0.07426404 0.0145716565 0.13840774
000110 11 73 c6 3d fd 85 c6 3d ef 10 be 3c 9d 39 35 3d
       0.09689916 0.09693525 0.023201434 0.044244397
000120 24 b8 d1 3c 8f 21 36 3e 87 48 a2 3d 6a aa 81 3b
       0.0256005 0.17786239 0.0792399 0.0039570825
000130 b2 07 45 bd 45 b5 de bc 99 dd 71 3d 12 68 6f bc
       -0.048103042 -0.027186045 0.059049223 -0.014612215
000140 ec dc 52 bd 62 86 6c 3d dc c9 03 3e 41 ae a6 3c
       -0.05148022 0.057745345 0.12869972 0.020346763
000150 cd d3 91 bc 6a a5 d6 3d ac 52 49 bc 99 7d e8 3b
       -0.01780119 0.10480769 -0.012287777 0.0070950505
000160 e7 61 80 3d 9a db a4 bd 3c b5 a7 bb 81 fc e3 bd
       0.062686734 -0.08049698 -0.0051180404 -0.11132146
000170 56 38 82 ba 8f ec 5f bc 2e 62 8c bc f2 ac 0a 3d
       -0.0009935002 -0.01366724 -0.01713666 0.03385634
000180 f9 02 af 3d e1 ee a4 bd 25 3c 81 bd 59 d1 dd bd
       0.08545489 -0.08053375 -0.063103 -0.108309455
000190 16 11 db bd b8 ae ae 3c ee ec 8f bd ec f8 5d 3b
       -0.10696618 0.021323547 -0.070276126 0.0033870293
0001a0 1f 68 be 3c d0 fe da bd c0 65 a4 3d da 7d 63 3d
       0.023243008 -0.10693133 0.0802722 0.055539943
0001b0 a9 7b 9e bd 74 f6 e3 bd be be e5 3d f6 c8 91 3d
       -0.0773843 -0.111309916 0.11218022 0.071184084
0001c0 15 87 81 3d c5 f1 3a be ef db f8 bd 69 3d d9 3d
       0.06324593 -0.1825629 -0.12151324 0.10607416
0001d0 97 c5 c7 bc ab 3a 94 bd cf d7 48 be 2b 7e 4d 3b
       -0.02438621 -0.072377525 -0.19613574 0.003135572
0001e0 0f c8 0f be 87 98 f3 bd 5a 86 df 3c e6 56 3a bc
       -0.1404116 -0.11894327 0.027285744 -0.011373257
0001f0 8a 5b 24 bd 1e 20 49 be aa fd 63 bd 2c 54 25 3e
       -0.04012636 -0.19641158 -0.055661835 0.1614539

disc.4.running_var f4 [128]
000000 1f e2 07 3d dd a5 b2 3c 31 db 9e 3c f6 4e 27 3d
       0.03317463 0.021807605 0.019391628 0.040846787
000010 d3 4a a8 3d ad 07 49 3d 0a ac 1c 3c 9f 27 c2 3c
       0.082173966 0.049079586 0.009562502 0.023700533
000020 20 98 87 3c 76 0d b6 3c e9 b6 8d 3c 25 cb c1 3c
       0.016552031 0.022223216 0.017299132 0.023656437
000030 f5 08 a7 3c 97 1c 82 3c 9c 8d 5b 3c ab 87 b1 3c
       0.020390013 0.015882773 0.0134004615 0.021671137
000040 dc 97 94 3d 25 64 c9 3d b8 f8 e4 3b b6 f9 e2 3c
       0.072555274 0.09833554 0.0069876574 0.027706962
000050 3f 71 d7 3c 11 c3 9f 3c d1 bf 22 3d 0a 92 07 3d
       0.026299117 0.019502195 0.03973371 0.033098258
000060 ef e6 b1 3c 64 9c b0 3c 1c 96 90 3c 60 46 a3 3d
       0.021716563 0.021558948 0.017649703 0.07972407
000070 4a e4 49 3c 31 61 80 3d 5d 1d b2 3c 19 3b 6d 3c
       0.012322495 0.06268538 0.021742517 0.014479422
000080 30 99 92 3c d0 c3 33 3d d2 8f bd 3d a3 6b 34 3c
       0.017895311 0.043887913 0.09255947 0.011011991
000090 a3 15 73 3d bf 26 8c 3c a9 aa 02 3d bf 22 4f 3c
       0.059346806 0.01710832 0.031901035 0.012642561
0000a0 f9 ee ac 3d ee fc cf 3c 59 24 9c 3d 82 7a e0 3c
       0.08444018 0.025389161 0.0762412 0.027402166
0000b0 47 49 d7 3d 7a 12 30 3d 71 95 8f 3d c9 bd c1 3c
       0.105120234 0.04298637 0.070109256 0.023650067
0000c0 3f 8d cb 3c 9f e3 50 3d 7d b6 0e 3d 17 81 a1 3c
       0.024847625 0.050998326 0.034842003 0.019714875
0000d0 ff 38 5b 3c e0 92 9b 3c 43 e5 c7 3c 2f c4 83 3c
       0.013380288 0.018990934 0.024401313 0.016084759
0000e0 f4 02 ac 3c 40 33 84 3d 55 a5 d5 3c d7 6d 43 3d
       0.020997502 0.06455088 0.026079813 0.047712173
0000f0 99 f3 96 3c de af 19 3d ff f2 95 3c 2e 07 6c 3c
       0.018426703 0.037521236 0.018304346 0.014406009
000100 71 e6 a0 3c 4d 29 84 3d 63 bd da 3c 8e bb ce 3c
       0.019641133 0.0645319 0.026701635 0.025235917
000110 47 a9 96 3c 36 7c 7d 3c 72 61 44 3c 2a 7a 5a 3c
       0.018391265 0.015471509 0.011986123 0.01333479
000120 d4 65 5b 3c 61 93 bc 3c 89 58 8b 3c 6b d6 20 3d
       0.013390977 0.023019494 0.01700999 0.039266985
000130 21 2f 34 3d 81 a6 d7 3c 5b 4c 03 3e b8 eb cd 3c
       0.043990258 0.026324512 0.12822096 0.025136814
000140 08 95 cf 3c 99 07 4a 3c 52 88 3b 3c 6b 78 ad 3d
       0.025339618 0.012330913 0.0114460755 0.084702335
000150 e0 5b 96 3c 8a 2a ac 3c 2c 63 3f 3c d7 c3 a7 3c
       0.018354356 0.021016378 0.011681359 0.020479126
000160 90 02 63 3c 3e 2d 93 3c 70 04 3e 3d d7 18 a5 3c
       0.013855591 0.01796591 0.04639095 0.020153446
000170 e3 cb 88 3c 9d e8 8e 3c 5f 29 76 3c 71 d3 6b 3c
       0.016698783 0.017444903 0.015024512 0.014393673
000180 87 76 71 3c 95 68 80 3c ec 08 76 3c 85 e5 be 3c
       0.014737732 0.015674869 0.015016776 0.023302803
000190 9f 15 4a 3d 32 cc 8f 3c 3c 6b 72 3c 04 50 a0 3c
       0.049337026 0.017553423 0.0147960745 0.019569404
0001a0 ce ac e0 3d ac 7d 74 3c 34 22 e4 3c bc 72 eb 3c
       0.1097046 0.014922541 0.02784834 0.028741233
0001b0 0e 9b eb 3c f2 a6 b3 3c 09 80 d8 3c c1 a7 e1 3c
       0.02876046 0.021930192 0.02642824 0.027545812
0001c0 6f ca 1f 3d 42 69 f6 3c 05 14 8f 3d ee d8 48 3c
       0.039011415 0.030079488 0.0698624 0.012258751
0001d0 d2 70 d0 3c 83 9d 19 3c d7 94 e7 3c c3 ea 0c 3d
       0.025444422 0.009375933 0.028269215 0.034403574
0001e0 16 da 5f 3c 44 1c 71 3c 27 7c 77 3c 16 de 20 3d
       0.013662836 0.014716212 0.015105284 0.039274298
0001f0 7d a4 e3 3d 1b a4 58 3c 1d ad 02 3d af 7c 9e 3c
       0.11115358 0.01322272 0.031903375 0.019346563

disc.6.weight f4 [1, 128, 4, 4]
000000 66 22 8c 3e 71 c6 d5 3d c2 b8 82 3d 11 0c 47 3e
       0.27369994 0.1043824 0.06382896 0.19438197
000010 35 bd 0e 3e 6d 7a 7d 3d de 1d 60 bd c8 74 ce bd
       0.13939364 0.061884332 -0.054715984 -0.10080868
000020 15 06 92 3d 97 a1 46 3d 8f 8d a6 be 13 d9 cd 3e
       0.07130066 0.048493948 -0.32529876 0.40204677
000030 a2 f4 9b 3d cc fe 1a be 81 cf a0 be 4c cd 24 3d
       0.076150194 -0.1513626 -0.31408313 0.04023485
000040 10 ca 19 be 56 44 ba 3e eb 77 5f 3e f1 59 49 3e
       -0.15018487 0.3638026 0.21823089 0.19663216
000050 2e f6 5d be 1a f3 db 3e 14 ef 8e 3d 3d 29 c6 3e
       -0.21675941 0.4295891 0.06979194 0.38703337
000060 0f f8 c4 bd 68 23 e7 3c 47 b5 b0 bc c6 a0 0f be
       -0.09617626 0.028215125 -0.021570815 -0.14026174
000070 61 14 5c be b5 6b bb 3d 8e 20 72 3e f0 3a 70 3d
       -0.21492149 0.09151403 0.23645231 0.058649957
000080 7e ea a2 3e 37 53 8f 3e 32 5b 80 3e ed d0 fc 3d
       0.31819528 0.27993175 0.25069577 0.12344537
000090 31 82 4a 3e a6 5b aa 3d eb 80 90 be 49 5a 83 be
       0.19776227 0.08318262 -0.28223357 -0.2565482
0000a0 7e a8 53 3e 8a be 62 bd ca 6c 00 be ac 53 aa bd
       0.20669743 -0.055357493 -0.125415 -0.083167404
0000b0 75 59 72 3e 71 99 26 bd 91 5b 1c be ed fe cc 3e
       0.23666938 -0.040673677 -0.15269305 0.40038243
0000c0 7b 1d ce be bf f1 e6 bd 7a 3e 0c be 9e e9 03 be
       -0.40256867 -0.11276578 -0.13695708 -0.12882087
0000d0 35 c0 0e be ec 42 67 be 6c 56 6f be 98 30 50 be
       -0.13940509 -0.22584122 -0.23372811 -0.20331037
0000e0 f0 94 aa be e8 8b d4 3d 1c 0c 0b be 08 73 dd bd
       -0.33316755 0.103782475 -0.13578838 -0.10812956
0000f0 a5 08 4e be d1 90 0b be fd f9 02 be 2b f5 fa bc
       -0.20120485 -0.13629462 -0.12790675 -0.030634483
000100 6a 86 09 bf b2 94 7f be 7c 24 8d bd 93 9d 39 3e
       -0.53720725 -0.24959067 -0.068917245 0.18126516
000110 e7 64 a7 be 17 55 73 be 76 58 35 3e 0f 84 d3 3d
       -0.3269417 -0.23762928 0.17709526 0.103279226
000120 74 28 9b be b0 95 10 be 6f 1f 2e 3d d1 87 ed bd
       -0.303043 -0.14119601 0.042510446 -0.115981705
000130 74 a2 81 be 0f 90 d7 3d f5 fd a3 3b 1c a0 8f 3d
       -0.25319254 0.10525524 0.0050046393 0.0701296
000140 31 85 f6 be eb 64 db be 2b 58 c0 bd 12 46 a1 bb
       -0.48148492 -0.42850432 -0.09391817 -0.004921683
000150 27 cd bb be d8 5a 79 3d 7c e6 c2 bd bf 38 c2 3d
       -0.36679956 0.06087765 -0.09516618 0.0948348
000160 d8 7b d6 be ea ec 03 be 15 8c 6e 3c 7e 0c 20 3d
       -0.4189136 -0.12883344 0.014559765 0.039074413
000170 ba 5d b6 be ff a7 2e be 3b 0a 2c 3e e4 62 40 bd
       -0.35618383 -0.17056273 0.16800778 -0.04696931
000180 46 b7 a2 be 79 8e 7f 3d f0 24 ff 3d 3c 35 55 be
       -0.31780452 0.062391732 0.12458217 -0.20821089
000190 a9 38 e2 3c 31 14 93 3e c5 a3 7d 3e 3a f9 28 3b
       0.027614908 0.28726342 0.24769504 0.0025783316
0001a0 30 14 c1 bd 33 da 85 3e 31 cc 7d be b7 26 e2 bc
       -0.094276786 0.26143035 -0.24784924 -0.027606351
0001b0 14 5e 90 bc 91 56 fc 3e 64 4b 1d be 21 9c 17 bc
       -0.017622985 0.49284795 -0.1536079 -0.009253533
0001c0 f5 ad a0 3e fa a2 33 bb dc f5 84 3d 51 04 cb bc
       0.3138272 -0.0027410374 0.064922065 -0.024782332
0001d0 29 ba dd 3d 68 c4 5b bc d2 57 8c 3d d1 c3 a4 be
       0.10826523 -0.013413526 0.06852688 -0.32180646
0001e0 2d bf d0 3d ab d0 94 3e 54 e1 af 3c 16 43 9c 3e
       0.10192714 0.2906545 0.02146975 0.30519933
0001f0 2d 27 eb 3d 06 f1 4d be 4d 37 a1 bd 5e c3 4c be
       0.114820816 -0.20111474 -0.07871876 -0.19996402
000200 d9 10 f2 3e 97 87 70 3e f0 54 bc 3d 23 75 9f 3e
       0.4727848 0.23489223 0.09195888 0.31144056
000210 f8 79 a7 3d b5 b3 42 be 87 48 9d 3d df 9b 12 3e
       0.081775606 -0.19013865 0.07679849 0.14317273
000220 8a 69 f8 3c 98 54 8b 3c 6f 8e 31 3d a4 bd 72 be
       0.030323762 0.01700811 0.043348726 -0.23705155
000230 f2 8e 0c 3e 45 79 81 3d de 42 4f bd 45 3c a9 be
       0.13726404 0.063219585 -0.05060088 -0.33053795
000240 57 eb 77 be 61 61 57 bb 41 16 d0 bd c1 99 b1 3e
       -0.24210869 -0.0032864439 -0.101604946 0.34687617
000250 52 c7 90 be 98 a1 0c be 50 0f 0a bd 06 50 15 3f
       -0.2827707 -0.13733518 -0.03370601 0.5832523
000260 46 9e 3f be fa 63 b8 bd 02 ce 85 bc 30 7c fc bc
       -0.1871272 -0.09003444 -0.016333584 -0.030820936
000270 64 8c 90 be 12 40 05 be c8 da 7d 3d 5c 83 09 be
       -0.2823211 -0.13012722 0.061976224 -0.13429016
000280 37 82 ac 3e 0f 60 30 3e b4 90 4b 3e 67 6c 77 3e
       0.33693096 0.17224143 0.19879419 0.24162446
000290 90 7c 27 3e b0 18 78 bc 02 03 22 bd 41 c0 2e 3d
       0.1635611 -0.015142605 -0.03955365 0.042663816
0002a0 e8 00 01 3e 54 9d 6b 3e 63 6a 06 be 93 4b fd 3c
       0.12598002 0.23009235 -0.13126521 0.030919826
0002b0 98 4f ef bd fc 4f 88 3e 98 e8 14 bf f3 49 9f 3d
       -0.11685103 0.26623523 -0.5816741 0.077777766
0002c0 e1 5d 32 3e e6 2f 5f 3e cc 4b 14 3e e0 a5 a0 3e
       0.17418624 0.21795616 0.14482039 0.31376553
0002d0 43 47 2b bd 59 17 8e bd d7 03 d7 3d 44 a3 f5 bd
       -0.041816007 -0.06938047 0.10498779 -0.11994031
0002e0 d3 6c 0f 3e da 7a af 3d 52 13 2c 3d 4e 56 61 be
       0.14006357 0.08568354 0.042010613 -0.22005579
0002f0 17 4e 08 be 10 17 1b be fa 58 87 3e c8 0a a1 3e
       -0.13311039 -0.15145516 0.2643507 0.31453538
000300 e2 a5 bd be 43 ee 8b 3d d2 fb c5 ba 96 95 84 3e
       -0.3704062 0.06832554 -0.0015104956 0.25895375
000310 67 60 98 be 6b 08 92 3e b1 0f 93 bd 7c ca 22 be
       -0.2976105 0.28522047 -0.07180727 -0.15897554
000320 99 2f 4a ba 58 e0 d1 3e 64 c4 69 bd c7 bf 70 3c
       -0.0007712781 0.40991473 -0.05707206 0.014694161
000330 7a e0 95 3d 7e 79 4c 3e a7 23 10 be bd 05 37 3e
       0.07318206 0.1996822 -0.140761 0.17873283
000340 bc 5c c8 bd 77 19 a7 3d 43 0a 0b 3e 83 0f ec be
       -0.09783313 0.08159154 0.13578133 -0.46105585
000350 3b 00 2c 3d 24 17 3b 3e b7 86 4d 3e f6 17 1b bd
       0.041992407 0.18270546 0.20070921 -0.037864648
000360 62 38 cf bd 49 c1 1f 3e c8 22 1c 3e 7f 18 97 be
       -0.10118176 0.15601076 0.15247643 -0.29510877
000370 88 fe 38 3c fd 9c c0 3c d4 04 60 3e c2 7a 54 be
       0.011291154 0.023512358 0.21876842 -0.20749953
000380 41 31 a8 be 69 69 82 bd fc a7 e1 be ae ee a6 be
       -0.32850078 -0.06367762 -0.44073474 -0.32603973
000390 6f 15 98 bd 1e 88 85 3d bc ee 99 be 7a 95 b2 bb
       -0.07425963 0.06520103 -0.30064952 -0.005449948
0003a0 74 06 90 be 98 27 b1 be 6d 2b 99 bd a6 2f 56 3e
       -0.28129923 -0.3460052 -0.07478986 0.20916614
0003b0 59 9c bc bd 69 6b 89 bd b4 bb 73 be c0 71 16 be
       -0.092095084 -0.0670994 -0.23802072 -0.1469183
0003c0 d3 b1 86 3e d5 38 ae 3d ba ab 61 3e 5b 09 50 3e
       0.26307544 0.085069336 0.22038165 0.20316069
0003d0 4a 11 c1 3d 11 f0 c0 bd 3a 3a c9 bd 89 1e f5 3d
       0.09427126 -0.09420789 -0.09825559 0.11968715
0003e0 b7 09 10 3d 7f 72 23 3e 76 db 2c 3d ae f8 89 3d
       0.035165515 0.15961646 0.04220148 0.06736885
0003f0 f8 f4 6d 3e 11 3c b9 3e cb 97 cf be 4e b7 aa bd
       0.2323798 0.3617864 -0.40545496 -0.08335744
