DCGAN/checkpoints/Discriminator.pth (torch, 42287 bytes, 13 tensors)

disc.0.weight f4 [16, 1, 4, 4]
00000000: 84d3 16bd 9823 a4bd 5cdc d3bc 7ebf c2bc
00000010: 1d4a 43bd 7105 97bc c12b 2abc 6f0e eabc
00000020: e60a 93bc f998 843d 227f 513d 53d5 ddbc
00000030: 3bf7 f4bc 7040 393d 253c 753c 7c6f f6bb
00000040: 9511 4d3c 2228 be3d df38 f33b 3486 843d
00000050: e629 be3c 652a 2c3d 7ae9 36bc e4a4 a73c
00000060: 5a5f 693d 05ee 2c3d 4417 acbc be5b 023d
00000070: 5a95 333d 98b5 5f3d b371 1c3d 03bf 323d
00000080: f616 93bb cfa4 7dbc 5ed8 4abd 2a3d 0ebd
00000090: d520 9d3c ed6c e93c 6f99 d6bc 8a87 25bd
000000a0: 5a8b 4d3d 4484 723d d501 2cbd 4c7a c1bc
000000b0: 9be2 3e3d 77eb f13c 3b11 5abd f8a1 1abd
000000c0: 78cf 91bb b200 89bc 4112 8bbc 8398 14bd
000000d0: cb35 9d3b 9db1 b0bc ffb9 88bc 6438 23bc
000000e0: 0da0 52bc 18bf 52bd a8f8 823d 98ec be3d
000000f0: 471e aebc 143d 63bc 5810 be3d 20f4 cc3d
00000100: 4330 8dbc f781 293b 1c93 24bc d16b ebbc
00000110: 3bc8 99bb 2594 9d3d c7b4 8b3d bc09 273b
00000120: c6bf 9eb9 2bf9 c33d 0c69 2c3d e7da c6bb
00000130: 4389 96bc 4c05 d9bb d89f a3bb e626 2bbb
00000140: 4eaf 2eb9 e760 1fbc 1c73 0fbc 3da9 653c
00000150: c651 24bc 67d9 52bb 9168 db3b f424 9fbb
00000160: 5bed 59bc 103e f43c 079a 393d 50be 6d3c
00000170: 9856 85bc 7c8a f33c 9fc6 dc3c fbd1 403b
00000180: d8b4 82bc 7c0e 34bd d421 803d 734f f53c
00000190: bb50 a1bc cb75 cabc 82c5 543d 480c 4f3d
000001a0: 60e0 59bc 553d 4fbd 41f9 e6bc 31d7 95bc
000001b0: 4d8b 7e3a 302d c1bc 54b6 d2bc 5a60 12bd
000001c0: fef1 1cbb 1b08 8ebb 1fcd fbba 8a4a 18bb
000001d0: a632 1ebb 585d dcbb b241 05bb e18c 663a
000001e0: 3749 8abb 7212 02bc f398 2fbb e839 85ba
000001f0: 9675 aabb a304 01bc 7efa 5aba a04e b1ba
00000200: 788c 423c 8eae 173d 10f1 813c 8804 373b
00000210: 34a1 05bd 2659 48bd d13c 90bc bc17 c0bc
00000220: 3e7e e7bc c0bd d2bc 46e3 ab3b d198 c5bb
00000230: 9238 90bc a9b3 173d cba0 193d 9aad 4ebb
00000240: c992 82bd a961 863d 3f80 bb3b 94ca d239
00000250: a9eb d5ba 8c5d 413b f9f2 253b 4cc8 85bb
00000260: 0b4f 113b 6b2f 2dba 2026 94bb b8c9 353b
00000270: 6ae9 2cbb d733 0ebb 25ee afba f450 02bb
00000280: ff11 75bb 765a 2e3d e74b 183d 5e30 a8bd
00000290: 7168 013d 89f0 203d 7489 90bb 602f 21bd
000002a0: 95bf 2a3d eeae 343c 7873 3abd 2db2 41bc
000002b0: 9091 cbbc 79a7 64bd a64e 2ebc a201 37bc
000002c0: 56a9 ed3c 92f6 ba3c a037 bcbb 0805 90bb
000002d0: a496 dfbb e0ac ee3d 8a94 c83c 56b5 11bc
000002e0: 6545 263b adeb 3b3d 05f6 343e 4039 153d
000002f0: 7ed0 1fbc 7a45 9e3c 0d61 e23c caff ef3c
00000300: 5c7d 08bc cb7c 3d3c 278c 0cbc cc78 42ba
00000310: d6dd dc3c 366c ffbc 5f71 f43c e5ea a0bb
00000320: 573e 62bc 1e2f 343d bb41 08bd 2bf9 0c3c
00000330: 3338 143b 76f9 7bbc 7fc4 a83c 0f75 deba
00000340: 0513 d33c e546 b53b d3c8 ee38 baa5 ac3c
00000350: a566 9bbd cb95 53bd fe63 c8bc 74d0 143d
00000360: 3170 90bd 7ad8 efbd 7e6a 1e3d f538 933c
00000370: 5cec 853c 5d7d 273d f103 95bb 24f5 4c3c
00000380: 3821 b2bd 8e29 903b 4023 d33c 031d cebc
00000390: 87b9 e3bd da4e 563c f056 e7bc 13b0 b7bc
000003a0: dca8 05bd b8ff 07be ed94 02bd a034 433c
000003b0: 4bce fdbc ba6e aebc 3112 5cbc 949c 7e3c
000003c0: a5ee 0abc f70f 0e3c b9f2 9a3c bbdf 31ba
000003d0: 55f8 fb3c 15f9 efbc ca08 0fbd 3071 e3bb
000003e0: d33d 68bd 3a41 a33d 0726 a03d 4bc7 503d
000003f0: c352 a23b f5f0 893d 42e9 d53d b6f0 2c3d
-0.03682281 -0.080146015 -0.025861911 -0.023772951 -0.0476781 -0.018435212 -0.010386408 -0.028571336
-0.017949533 0.0647449 0.051146634 -0.02707926 -0.029903045 0.045227468 0.014967953 -0.007520614
0.012516399 0.092849985 0.007422551 0.0647091 0.023213338 0.042032618 -0.011164064 0.020464368
0.0569757 0.04221918 -0.021007188 0.031825773 0.043843605 0.05461654 0.03819437 0.043639194
-0.004488821 -0.015481188 -0.04952275 -0.0347263 0.019180695 0.028494323 -0.02619621 -0.040412463
0.050181724 0.05920817 -0.041993935 -0.023617886 0.046602827 0.029531224 -0.05323909 -0.03775212
-0.004449781 -0.016723964 -0.016976478 -0.03627826 0.0047976724 -0.021569068 -0.016690252 -0.009962175
-0.012855542 -0.051451772 0.06395084 0.093224704 -0.021254672 -0.013869543 0.09280461 0.10007501
-0.017234927 0.0025864819 -0.010044839 -0.028737934 -0.004693059 0.07694272 0.0682159 0.002548798
-0.0003027899 0.095690094 0.042092368 -0.0060685757 -0.018375998 -0.006622946 -0.00499342 -0.0026115715
-0.00016659239 -0.009727693 -0.008755472 0.0140174 -0.010029262 -0.003217304 0.006695815 -0.0048567
-0.013301219 0.02981475 0.045312908 0.014510706 -0.016276643 0.02972912 0.026950179 0.0029422033
-0.015955374 -0.043959126 0.06256452 0.02994511 -0.019691816 -0.024714371 0.05194617 0.05054882
-0.013298124 -0.0505956 -0.028195025 -0.018291088 0.00097100885 -0.023581117 -0.025721706 -0.03573642
-0.002394795 -0.0043344623 -0.0019210911 -0.0023237788 -0.0024139076 -0.0067249946 -0.0020333347 0.00087947963
-0.0042201537 -0.007938968 -0.0026794046 -0.0010164352 -0.0052020056 -0.007874641 -0.0008353366 -0.001352746
0.011874311 0.037031703 0.015862018 0.0027926285 -0.03262444 -0.048913144 -0.017607125 -0.023448817
-0.02825844 -0.025725245 0.005245599 -0.00603018 -0.0176051 0.03703657 0.03750686 -0.003153658
-0.06375653 0.06561596 0.0057220752 0.00040205254 -0.0016320843 0.0029505221 0.0025321825 -0.004082715
0.0022172357 -0.0006606492 -0.0045211464 0.0027738642 -0.0026384243 -0.002169838 -0.0013422413 -0.0019884678
-0.003739476 0.04256674 0.03718176 -0.0821235 0.031593744 0.039291892 -0.004410917 -0.03935182
0.041686613 0.011028035 -0.045520276 -0.011822266 -0.024849683 -0.055823777 -0.010638868 -0.011169823
0.02901141 0.022822652 -0.0057439357 -0.004395131 -0.0068233777 0.11654067 0.024484891 -0.0088933315
0.0025370952 0.045879055 0.17671974 0.03643155 -0.009754298 0.019320238 0.027634168 0.029296774
-0.008330669 0.0115653975 -0.008578337 -0.0007418513 0.026961248 -0.031179529 0.029839216 -0.004910814
-0.013808808 0.043990247 -0.03326581 0.008604328 0.0022616505 -0.0153793 0.02060151 -0.0016972142
0.025765905 0.005532133 0.00011386131 0.021075118 -0.07587937 -0.051656526 -0.024461742 0.03633161
-0.07052649 -0.117112115 0.038675778 0.017971495 0.016348056 0.04089104 -0.004547589 0.012509618
-0.08697742 0.004399485 0.025773644 -0.025160318 -0.11119371 0.013080323 -0.028239697 -0.022422826
-0.03263174 -0.13281143 -0.031880308 0.011914402 -0.030982157 -0.021293033 -0.013432072 0.015540261
-0.008479749 0.0086707985 0.018914567 -0.00067853526 0.030758062 -0.029293576 -0.03492049 -0.0069409832
-0.056699585 0.07971425 0.07819753 0.05097131 0.0049537136 0.06735412 0.10444881 0.042221747

disc.0.bias f4 [16]
00000000: be6e 743d 37d2 d03c 4491 ff3d 944a 02be
00000010: c6f2 3d3e 72a2 05be 58dd 2ebe da8a 0f3d
00000020: 3899 9ebd 0d5c cd3d 6daa 4abe d620 ac3d
00000030: 1069 cebd 0e3e 5ebe 9769 ef3d 739b a1be
0.059675924 0.025490863 0.12478879 -0.12723762 0.18549642 -0.13050249 -0.17076623 0.03504453
-0.07744068 0.10027323 -0.19791575 0.084047005 -0.10078633 -0.2170336 0.116900615 -0.3156391

disc.1.weight f4 [16]
00000000: c404 303d 97d0 213d b20d 963d b874 bdbd
00000010: f7bf 0e3d 6c20 663d 04fe 4dbd 9eb9 6fbd
00000020: 5adb 31bd a080 f8bc 7da2 473d 22dd 04be
00000030: 79f1 183c 1927 5d3d 4618 27bd 51bd d73c
0.042973295 0.039505567 0.07326831 -0.09250778 0.03485104 0.056183264 -0.050291076 -0.058526628
-0.04342208 -0.03033477 0.048738945 -0.1297498 0.009334915 0.053992365 -0.040794633 0.02633539

disc.1.bias f4 [16]
00000000: cf20 b73b dec8 82bc f2d5 23bd 2134 b1bc
00000010: 548b adbd 6856 14bc 8338 1cbd 461b cdbc
00000020: 570b 60bd c6b1 93bc cef5 edbc 4a19 fd39
00000030: 3ad1 3c3d 9269 9a3c 4e19 d5bc a521 8a3c
0.005588628 -0.015964922 -0.039998956 -0.021631302 -0.0847384 -0.009053804 -0.03813983 -0.025037419
-0.054698315 -0.018029105 -0.029047873 0.00048274762 0.04609797 0.018849168 -0.026013043 0.016861746

disc.1.running_mean f4 [16]
00000000: 42bb 3f3e 98f3 b7be 7215 463e 6cda 61be
00000010: ad33 543d fb9a 52be d692 c4bd a035 943d
00000020: c45f 16bd 08dc c93d 4664 0abe 9dbb 88be
00000030: 809c f6bd b3ef fabd 4594 e43e 60d7 0fbf
0.18723777 -0.35928035 0.19344118 -0.22055978 0.051807094 -0.20566933 -0.09598319 0.07236791
-0.036712423 0.09856421 -0.13514814 -0.26705638 -0.12041569 -0.1225275 0.4464437 -0.5618801

disc.1.running_var f4 [16]
00000000: 036f 6a3c f53f 733d 8d78 7c3c 47df c53c
00000010: f384 873c ec4f a83b 777f 0f3c 3e09 2e3a
00000020: ef00 5d3b 1954 4c3a 2ba8 363c c98c 873d
00000030: 0674 8839 64b3 883c ca4b 613d 2972 1f3d
0.014308694 0.059387166 0.015409601 0.024154318 0.016542887 0.0051364806 0.008758417 0.00066389504
0.003372248 0.0007794514 0.011148493 0.066186495 0.00026026386 0.016687103 0.05500392 0.03892723

disc.3.weight f4 [32, 16, 4, 4]
00000000: 8aaf 0a3c 970b 9fbc 3d34 c4bc bbdb 313d
00000010: 4183 a73c ceeb b2bc 971b 98bc 62db d43d
00000020: e8bb 45bd 2c29 18bd e886 64bb c0a6 923c
00000030: bd6e bcbd 2383 7dbd ccb9 703c f200 133c
00000040: 1547 c2bc 962d ba3c 95c9 5fbd f49a 4e3d
00000050: 7866 363a 8946 2cbb a145 823d cf74 753d
00000060: b045 ba3b b63e 07bd 5df2 1abc b89f 893d
00000070: f1a4 b03c 0e0f 01bd ca6c c93b 3dd2 6dbc
00000080: 2b4c e6bd 8f0a cb3c 830d 20bd 13b4 b1bd
00000090: bf13 6b3d 425a 983c 5c4e 86bd 3f03 9cbd
000000a0: 4f68 913d b378 743d 4a98 8f3c b8a8 a1bc
000000b0: 7a17 99bd 4553 803d b0af 2b3d 833d 1d3d
000000c0: f3e8 d93c 4e00 5c3d 2155 7b3d f78c 633d
000000d0: a92c efba 7679 d1bc 2101 863d d914 183e
000000e0: a1f3 e8bc 6426 82bd 0dbf 813d 9136 be3d
000000f0: e5fe f6bc 1afc 06bd 79b0 0f3d dc2d 1f3d
00000100: 42bf a23d 5d70 543b 218a 963b 676f e0bb
00000110: a30d 8f3d 6d90 b23d e237 b4bc 0655 273d
00000120: a37a c83c 997e d53d dd96 163d a042 a83b
00000130: d2fc ce3a 19e0 9f3d b2a2 923d 96a3 dc3d
00000140: 0929 8cbc 4458 acbc 71af 4c3c a364 17bc
00000150: ec02 6cbc 33dc 34bd c2ee a5bc 640d 333d
00000160: 6be4 4cbd 966c 15bd 3867 2cbc e20f 2e3d
00000170: e9e2 8fbd 08e3 edbd ac74 2f3d afaa 56bc
00000180: 9c83 a2bd 2d40 1fbd 4b9a c4bc 790b 38bb
00000190: 4ecd e7bc 1fae 1c3d c8a6 5b3b c2d3 af3c
000001a0: 9b7a 253d 3f27 393c 4073 f4bc 5822 3b3c
000001b0: 704c 8f3d 4f00 9c3d 7243 e5b9 d105 5c3c
000001c0: cdf0 98bd 84f1 50bd 3572 2cbd 604e 01bd
000001d0: 17fd 8abd 263f bfbd 6795 84bd a7ee 36bc
000001e0: 20b9 86bd 3901 cabd 4fd6 ddbc 2d7b 4ebb
000001f0: 9de4 b2bd 9bed a8bd 9121 e7bc 803b 18bc
00000200: af74 1bbd 5722 b7bc ab5c 16bd 584d a03d
00000210: 0cee dabc 67cb 4a3b 9642 fbb7 1f51 0c3e
00000220: 6747 d2bc 9bda 62bd 4101 2fbd 19e6 623d
00000230: 0a15 5f3c 6351 b8bc d108 2b3d 0025 783d
00000240: 2ae5 65bd b299 2bb9 a306 e5bc 840c 313c
00000250: 6fb1 44bd f9c3 6ebc b8ef 413d 4420 bfbc
00000260: 0a0f e13c 59ad bb3b 3555 2a3d b196 fc3b
00000270: c2db 81ba ba19 fa3c d432 a1b6 f38a d33c
00000280: 265f 6e3d b66f 3b3d 2da1 4b3d ee1e f03c
00000290: 7808 ec3d b4f5 d53d 5b41 81bd 6435 7e3d
000002a0: 7ef0 89bc 08af 0f3d d4ac 053e cf66 903c
000002b0: 2d40 fc3c 3a55 853d 8e13 df3c 376d 743c
000002c0: ceb1 943c 0d99 323c 9924 bfbc 2edd 68bd
000002d0: d9bc 093c fbf9 113c 007a 5ebd 05e6 89bd
000002e0: 300d 7d3c 1ba2 1fbb 60d1 83bd 4a4d 4fbd
000002f0: b36d 883d 1713 683c 7ef1 b2bc ffe0 593c
00000300: 59df 2cbd f3e0 99bc 3099 563c 7262 a83c
00000310: b0f1 32bd ecb2 55bd 408a f03b a0a5 8dbc
00000320: be35 333a 2c36 a9bc 308b 583c a507 07bd
00000330: 06b5 bdbc 5f65 03bb f872 8abb e42f febc
00000340: 7653 df3a 35ea 97bc 7111 0c3d 5edb 0b3d
00000350: 1e2d 90bc fae9 a6bc e801 ed3b f150 5b3c
00000360: b356 7cbd 30b2 56bd 155f e13c 14ef a03c
00000370: 91ef a5bc efeb 35bd 1fb8 bfba 9730 adbd
00000380: 1e47 f0bc 3fe3 fa3b bd12 50bd ec8e a93c
00000390: 2d78 ca3b a95a d3bb 1814 103d 41f3 523c
000003a0: 0b25 2ebd b567 9e3b c3af e63c 4319 ac3c
000003b0: 3895 16bd 6b9c b93d 421d 053d 508b 963d
000003c0: de03 703b 6542 9f3c b4b3 823d 59b4 f13c
000003d0: 1985 7f3d 81c2 f53c d4f7 0d3d c70e cf3d
000003e0: f05a 173d 928d 9c3c 2d4f 6c3d b3a5 a63d
000003f0: 695d d73b 3125 e13b 321e 733d 638f 3cbc
0.008464703 -0.019414706 -0.02395069 0.043422442 0.020448329 -0.021840956 -0.018567843 0.103934065
-0.048274904 -0.03714864 -0.003487045 0.017901778 -0.09200809 -0.06189264 0.014692735 0.008972393
-0.023715535 0.022726815 -0.054635603 0.050440744 0.0006958018 -0.002628716 0.06360937 0.05992585
0.005684577 -0.03301879 -0.009457198 0.06719917 0.021563025 -0.031508498 0.006147002 -0.014515457
-0.11244997 0.024785308 -0.039075386 -0.086769246 0.05739188 0.018597726 -0.065579146 -0.07617807
0.070999734 0.05968542 0.017528672 -0.019733772 -0.07475181 0.062658824 0.041915596 0.03838874
0.026600337 0.053711228 0.061360482 0.055554356 -0.0018247563 -0.025570612 0.06543184 0.14851703
-0.028436484 -0.06354979 0.06335268 0.092877515 -0.03015084 -0.032955267 0.035080407 0.038862094
0.07946636 0.0032415607 0.004594103 -0.0068492177 0.06985023 0.08718953 -0.021999303 0.04085257
0.02447254 0.10424537 0.03676497 0.0051348954 0.0015791899 0.07806415 0.07159938 0.10773389
-0.01710941 -0.021038182 0.012493 -0.009240302 -0.0144049935 -0.04415531 -0.02025545 0.043713942
-0.050022524 -0.03648051 -0.010522656 0.042495616 -0.070257016 -0.116155684 0.042835876 -0.013102218
-0.07935259 -0.038879562 -0.023999354 -0.002808301 -0.02829614 0.038251992 0.0033516157 0.021463279
0.04040013 0.011300861 -0.029840112 0.011421762 0.06997001 0.07617246 -0.00043728534 0.013429121
-0.07467804 -0.051011577 -0.042101104 -0.031568885 -0.06786554 -0.093382165 -0.06473809 -0.011165298
-0.065782785 -0.098635145 -0.02707973 -0.0031506524 -0.08735011 -0.08248445 -0.028214248 -0.00929153
-0.037953075 -0.022355242 -0.03670947 0.07827252 -0.026724838 0.003094399 -2.9952538e-05 0.1370282
-0.025668813 -0.05538426 -0.042725805 0.05539522 0.013615856 -0.022499746 0.041756455 0.06058216
-0.05612675 -0.00016365087 -0.027957266 0.010806207 -0.048020776 -0.014573091 0.047347754 -0.023330815
0.027472991 0.0057274518 0.041585166 0.0077083935 -0.0009907412 0.030529846 -4.804091e-06 0.025823092
0.05819621 0.045760833 0.049714256 0.029311623 0.11525053 0.10447255 -0.06311294 0.062062636
-0.016838308 0.035079032 0.1305421 0.017627148 0.03079232 0.06510396 0.027231004 0.014918617
0.01815119 0.010900748 -0.02333288 -0.05685156 0.008406841 0.008909698 -0.054315567 -0.06733326
0.015445039 -0.0024358097 -0.064364195 -0.050610818 0.066615485 0.014164708 -0.021843668 0.013298272
-0.04220519 -0.018784022 0.013098046 0.020554755 -0.043687522 -0.052172586 0.0073406994 -0.01729089
0.00068363163 -0.020655714 0.013216779 -0.032966275 -0.023157608 -0.0020049436 -0.004225131 -0.031028695
0.0017038423 -0.018544296 0.03419632 0.03414475 -0.017599639 -0.02037524 0.0072328933 0.013385997
-0.06160612 -0.052416027 0.027511159 0.019645251 -0.020255836 -0.044414457 -0.0014627016 -0.084565334
-0.029330786 0.0076564844 -0.05079912 0.020698033 0.006178877 -0.0064500165 0.035175413 0.012875379
-0.042515796 0.00483414 0.028159982 0.02100814 -0.0367634 0.090630375 0.032498606 0.073507905
0.0036623399 0.019440839 0.06381932 0.029504942 0.06238279 0.029999973 0.034660175 0.101102404
0.03695196 0.019110475 0.057692695 0.08137073 0.0065724147 0.0068708886 0.05935497 -0.011508795

disc.3.bias f4 [32]
00000000: d9f8 383d 5920 a23c 901a 7ebc 7de3 3d3c
00000010: aaf8 fb3a 0761 0ebc 0f88 20bd e1a8 773c
00000020: 3cae 053d e9fc ab3c 14df ac3d e00e 0cbd
00000030: dd4a fcbc 89c0 0bbc 9eed ea3c b838 f53c
00000040: b31f d3bc 41b7 4a3d 2e40 a6bc 2f04 103b
00000050: bc7a 6bbd ea42 ad3d a6da 22bd b2bd a23d
00000060: f6f3 6d3a c2ff 043c bf7f c2bc bf51 ff3b
00000070: 821e 54bd 742c 91bd 2463 aabc 75a2 a5bc
0.045159195 0.019790815 -0.015509263 0.011589882 0.0019223888 -0.008690125 -0.039192256 0.015115947
0.032636866 0.02099462 0.08440986 -0.034193873 -0.030797416 -0.008529791 0.028677758 0.029934272
-0.025771951 0.04949117 -0.020294275 0.002197515 -0.057490095 0.084600285 -0.0397593 0.07946338
0.00090771855 0.008117618 -0.023742555 0.0077917273 -0.051786907 -0.07088557 -0.020799227 -0.020219067

disc.4.weight f4 [32]
00000000: 9d44 ee3d 80a0 633e 35d6 87bd e51e 0a3e
00000010: 7dc9 5a3e e039 04be fbde 013e 1b1e 18be
00000020: df95 16be fec7 1a3e 5c69 49be b8ee 0fbe
00000030: e5cb 96be 45e2 08be 8142 593e 6a4e 423e
00000040: 9525 1b3e 2eb7 153e 1603 313e 6c64 333e
00000050: 08ca 63be be95 07be 6d1d 8d3e 4d75 a1bd
00000060: 946d 42be 57f0 99be 2d79 37be 6ac5 aebd
00000070: e6ca 673e b55a 073e d9c2 3bbe 7f64 25be
0.11634181 0.22229195 -0.066326536 0.13488348 0.21365924 -0.12912703 0.12682717 -0.14855234
-0.14705609 0.15115353 -0.19669098 -0.14055908 -0.29452434 -0.13367565 0.21216775 0.18975225
0.15151055 0.14620659 0.17286333 0.17518777 -0.22245038 -0.13240716 0.27561513 -0.078837015
-0.18987113 -0.30066177 -0.17917319 -0.085337475 0.22635993 0.13218196 -0.18336047 -0.16151617

disc.4.bias f4 [32]
00000000: 384a c93d 214d 1a3e 44c8 383d 5e75 c43d
00000010: b47c b93d f4d1 9fbc 2a62 a13c e4b7 e63d
00000020: 9028 ad3d cbca 333e b119 663e e956 013e
00000030: c3a6 273e 0b22 253e 59d5 043e ddf3 a2bd
00000040: 9684 a3bd c12d 543d 610c 0d3e 52e5 8b3d
00000050: 1094 c33d f41f 183d 4b4b 343e d8af a23b
00000060: 4c00 163d 3271 be3c bc19 6e3e 22f9 a73d
00000070: c4c1 b83d 31cd 083b f74c 5c3e 7934 b73d
0.09828609 0.15068485 0.045112863 0.095926985 0.09056988 -0.019509293 0.019700129 0.11265543
0.08455002 0.17557828 0.22470738 0.1263081 0.16372208 0.16126268 0.1297201 -0.079566695
-0.07984273 0.051801447 0.13774253 0.06830849 0.09549725 0.037139848 0.17606847 0.00496481
0.036621377 0.023247335 0.23252004 0.08201815 0.09021333 0.0020874257 0.21513735 0.08945555

disc.4.running_mean f4 [32]
00000000: c9d9 4c3c cfca 313d fc2b 153c f7ce 5a3d
00000010: 18a8 2e3d 2add 0d3c c484 64bd 0d69 403d
00000020: e532 543c 7be6 3c3d d0ad 33bc f32c c8bb
00000030: 5bca 19bc 91d4 12bd 4782 d9bc bf47 20bc
00000040: 4f87 c7bb ad3b 293d 8c2d d53c 6b31 143d
00000050: df5b 7ebd d83f ed3d 7d5b c5bc 2009 8a3d
00000060: 8261 073d d83f 2a3d edb0 143c e884 c33c
00000070: 354e 8dbd 8a33 d9bd 7656 c33c a774 a13c
0.012503096 0.043406304 0.009104725 0.053420033 0.042640775 0.008658687 -0.055790678 0.046975184
0.012951587 0.04611824 -0.010966733 -0.006108874 -0.009386624 -0.03584725 -0.026551379 -0.009782731
-0.006089128 0.041316677 0.026022695 0.03617994 -0.062099334 0.11584443 -0.024091477 0.06740022
0.033051975 0.041564792 0.0090753855 0.023867086 -0.068996824 -0.106055334 0.023844939 0.019708944

disc.4.running_var f4 [32]
00000000: 53da b33a 43a6 b13b c632 763a 944a 6e3b
00000010: 4be0 433b 1fad 3f3a c714 7e3a c7dd 543b
00000020: 5f51 543b 74aa bc39 96c1 a139 a29f 7b3a
00000030: 959c 8a3b c10f 103b 9824 263a 34e1 773a
00000040: 0cc0 a93a d1af 723a dc62 9f3a c0e7 093b
00000050: 158a f13a 5ea4 7c3a 3b8b de3b 18e7 0f3a
00000060: 2c5c 303b 900a d63a 950d ba39 21db 913a
00000070: a63d 203b 3f1c ed39 d995 823a 1381 c63a
0.0013721682 0.0054214313 0.0009391721 0.003636037 0.0029888328 0.0007311869 0.0009692427 0.0032480822
0.0032397134 0.00035985152 0.00030852546 0.0009598677 0.004230092 0.0021982046 0.00063378504 0.000945586
0.0012950911 0.0009257766 0.00121602 0.0021042675 0.0018427992 0.000963753 0.0067915 0.0005489453
0.0026910407 0.0016330052 0.00035486804 0.0011127928 0.0024450808 0.00045225208 0.0009962871 0.0015144668

disc.6.weight f4 [1, 32, 4, 4]
00000000: 1ff5 953e 4d92 313e b8f7 da3d b21d e43d
00000010: e705 513e fbbf 023e 263f 3bbd d112 9ebc
00000020: 1d13 293e 342d 273d 0c00 a2bd 0c30 f2bd
00000030: 7e8f 0f3e 3bdb 803d 5905 a0bd b438 043d
00000040: 8e40 d53e 6e8f 0f3e f1df 3b3d 1b0d af3d
00000050: 5488 873e 603a 2fbd f555 edbd 4a6e eebd
00000060: 396f 523e 0599 b5bd a57e 56be 254f 0fbe
00000070: 7a0c 6a3e ccbd fd3c c17a 05be 3098 77bd
00000080: a493 4f3e 81cd 1e3e 4424 283d dd0c f2ba
00000090: 6e42 253e 8cf8 a3bc bbce fb3d 4b4c 80be
000000a0: 243b cfb9 b2df 09bd 6bcc b4bd abc7 84bd
000000b0: 442b 103e c1cf 5c3e 515d 1dbe b686 0bbb
000000c0: a6cf 93be 0284 35bc ebf4 8cbd caef bfbd
000000d0: afb4 b2bd d226 943e d8ee 893e 6fea a33d
000000e0: f648 0dbd d5ab 2e3e cb7c cf3c 3242 473d
000000f0: 60d1 a0bb 3c90 833e 52e3 c93d dfc8 6b3c
00000100: 7178 78be 3878 30be 37a6 18be 7a61 01bd
00000110: e554 83be ebf2 ed3c 4c45 56bd 7417 1d3d
00000120: 5d94 28be b56c 6ebd c670 5ebd ffc5 293d
00000130: da0f 50be 5c73 7dbb 77b1 753c af65 01bb
00000140: d810 f33d 0c13 853b cd86 09bd 8398 38bd
00000150: 8655 413c 4913 3dbd 2893 56bd c108 8cbd
00000160: 103c b53d 849e e4bd ceab e73d 8fdb 00be
00000170: 19ab 223b a041 45be 2831 3abd b89f 59be
00000180: 2a6d 353e 434d 933e 8d1a 783e 8234 c73d
00000190: 5a33 a33e 7ef4 33bc 281d eebc 5cb2 75bd
000001a0: 030b 193e 8b6f ba3d 3006 4f3c 5d7e 27bd
000001b0: 1a1d 4a3e 6015 0e3e 1da5 9dbc 8d1c ae3d
000001c0: b5a2 21be a0dc 3bbe 7aa4 2abe 281e 53be
000001d0: 8a5d 33be 73e3 433c 2d6b 223d 2589 8f3d
000001e0: ee42 23be d4a8 1a3c 7870 73bc c324 b1bc
000001f0: 29ba 81be f03b 18bd c456 59bb fe19 143c
00000200: b03f d03e dce1 8b3e 93f0 0f3e 4cda 323e
00000210: 5a68 2e3e 2270 71bc fed1 0bbe 2271 37bd
00000220: 1cf8 193e dd3a e0ba 9590 d4bd f7ac 103d
00000230: 5d20 413e de71 e73d 7e97 2bbd 4f73 ccbb
00000240: d076 78be aad3 6fbd f180 51bc 0496 103b
00000250: 2126 0dbe 9fda 20bd 39fa ff3c 2122 d83c
00000260: 3815 8cbd d04f 07ba b0ae 03bc 42e4 8e3d
00000270: 0f98 0bbe 43dd afbb 9371 c5bc 5aeb 563d
00000280: a4f4 cbbe a00f 51be caf4 01be 9f9c dabc
00000290: 47b5 4dbe 3259 c7bd 767d 03bd 40d6 6f3d
000002a0: 84fb 81be 1435 f8bd f702 ffbc a4dd ec3c
000002b0: ff76 58be 919f 0dbe cab7 03bd a4a9 4b3d
000002c0: 4ad5 673e 56e4 2a3e b93f 293d d5c5 913d
000002d0: 649c da3d 6db1 fabd 4cf9 26be 101c 84bd
000002e0: f487 223e 7b46 0abd 8a8b ef3c fb21 71bc
000002f0: e365 673d aa33 68ba 858e a3bc 535c ab3c
00000300: def8 cdbe 8d78 72be 5dbf 33bd 9ec2 5bbd
00000310: d97b 72be c352 813d 3fdd 403e dfe2 213e
00000320: e384 e7bd 2aaa 183d 1df5 003e db6d 023e
00000330: 4621 60be af4e 773d 8885 843e 92ce 0a3e
00000340: 634f f8bd 20ff 1d3e 0360 c93c d170 393d
00000350: 0ab0 f9bd a8f4 b23e 1570 8b3e bcac e43d
00000360: 9515 58bd 7716 5c3d 3e03 2a3d 0663 403e
00000370: 20b5 11be b1be 393e 242b bf3d 8967 2a3d
00000380: 22c2 d7be a339 25be cfb1 aebd dfc9 f53b
00000390: e668 4ebe c41a 06be 22f7 08bc 6be4 2c3d
000003a0: 11cb 48be 6d12 a2bd 47dc 963d 39b2 b23c
000003b0: fbe8 31be b654 a7bd 436b 113d 06e2 4a3d
000003c0: 70a9 7b3e 5528 363d 538d e2bc d491 ab3c
000003d0: 0270 2f3e a0c0 1fbc 25a2 953c d8a2 83bd
000003e0: 43db dc3d 2739 fc3b be55 e6bd f733 e6bd
000003f0: 45cd be3d 74af 12bc bdc5 2abe 23df 56bd
0.29288575 0.17340966 0.1069178 0.111384764 0.20412408 0.12768547 -0.04571452 -0.019296082
0.16511197 0.040814593 -0.07910165 -0.118255705 0.14019582 0.06291815 -0.0781352 0.03228064
0.41650814 0.14019558 0.045867864 0.085474215 0.26471198 -0.04278028 -0.11588661 -0.1164213
0.2055024 -0.08867077 -0.20946749 -0.13995035 0.22856322 0.030974291 -0.13035108 -0.06044787
0.20271164 0.15508081 0.04105021 -0.0018466968 0.16138622 -0.020015977 0.1229529 -0.25058207
-0.0003952618 -0.033660598 -0.08828052 -0.06483396 0.14079005 0.21563627 -0.15367629 -0.002129001
-0.2886936 -0.011078836 -0.06882652 -0.09371908 -0.08725869 0.28935868 0.26940036 0.08003699
-0.03449341 0.17057736 0.02532806 0.048647113 -0.004907772 0.2569598 0.09857811 0.014391153
-0.24264695 -0.1723336 -0.14907156 -0.0315871 -0.25650707 0.029046496 -0.05231218 0.038352445
-0.16462846 -0.05820914 -0.054306768 0.04144859 -0.20318547 -0.0038673496 0.014995924 -0.0019744446
0.11868447 0.0040611085 -0.03357582 -0.04506732 0.0118001755 -0.04616097 -0.052386433 -0.06837607
0.08849347 -0.11163047 0.11312066 -0.12583755 0.002482122 -0.19263315 -0.045457035 -0.21252334
0.17717424 0.28769884 0.24228878 0.09726812 0.31875116 -0.010983584 -0.029066637 -0.05998455
0.14945607 0.091033064 0.012635753 -0.040891994 0.19737664 0.13875341 -0.019243771 0.085015394
-0.15784724 -0.1834588 -0.16664305 -0.20616972 -0.17516151 0.011956084 0.039652992 0.0700858
-0.159435 0.009439666 -0.014858358 -0.021623975 -0.2533734 -0.037166536 -0.0033163289 0.0090394
0.4067359 0.27320755 0.14056616 0.17466086 0.17031994 -0.014736207 -0.13654324 -0.044785626
0.15036052 -0.0017107386 -0.10379139 0.035321202 0.18860002 0.11301015 -0.04189252 -0.006239332
-0.24264073 -0.058551468 -0.01278709 0.0022062073 -0.13784076 -0.039270993 0.031247245 0.026383461
-0.06839985 -0.00051617343 -0.008037254 0.069771305 -0.13632225 -0.0053669526 -0.024102008 0.052470542
-0.39835083 -0.20416117 -0.12691036 -0.02668601 -0.20088683 -0.097338095 -0.03210207 0.058553934
-0.25387204 -0.12119499 -0.031129343 0.02891428 -0.21139143 -0.13830401 -0.032157697 0.04972233
0.22639957 0.16688666 0.041320536 0.071178116 0.106743604 -0.122408725 -0.16306037 -0.06450665
0.15872175 -0.03375862 0.029241342 -0.014717574 0.05649365 -0.0008857796 -0.01996542 0.020918047
-0.40228933 -0.23678799 -0.04388367 -0.0536524 -0.23680057 0.06314614 0.18834399 0.158092
-0.11304643 0.037271656 0.12593503 0.12737219 -0.21887693 0.060377773 0.25883126 0.13555363
-0.12124517 0.15429354 0.024581915 0.045273606 -0.1219178 0.34952283 0.2723395 0.11165759
-0.052754957 0.05373236 0.041507 0.18787774 -0.1422925 0.18139149 0.093344 0.041602645
-0.421403 -0.16135268 -0.08530008 0.0075008716 -0.20157203 -0.13096148 -0.008359702 0.042210024
-0.19608714 -0.07913671 0.07366233 0.021813499 -0.17374031 -0.08170454 0.035502683 0.04953196
0.24576354 0.044472057 -0.02765528 0.02094356 0.17132571 -0.009750515 0.018265793 -0.06427544
0.10784008 0.007697243 -0.11246823 -0.1124038 0.09316496 -0.008952964 -0.16676994 -0.052458894
